Notebooks/dev_model.tflite (tflite, 300296 bytes, 8 tensors)

sequential/dense/BiasAdd/ReadVariableOp/resource f4 [256]
0	0xbc86c5c0	-0.016451716
1	0xbcb22cd0	-0.021749884
2	0xbd0bc52b	-0.03412358
3	0x3d58c3a7	0.052920964
4	0x3cddd6c0	0.02707994
5	0x3c866066	0.016403388
6	0x3ca0ca16	0.019627612
7	0xbc6266f0	-0.0138184875
8	0x3d22b915	0.03972729
9	0x3d6d4247	0.057924535
10	0x3ccfa3ee	0.025346722
11	0x3cdf1978	0.027233824
12	0x3beda48b	0.007252281
13	0x3d18b048	0.03727749
14	0xb9facef6	-0.00047837914
15	0x3d52a9c8	0.051431447
16	0x3cfbe1a3	0.03074724
17	0x3ccb9b56	0.024854343
18	0x3bcc1e8b	0.006229227
19	0xbc1e37c4	-0.00965685
20	0xbc60e3ba	-0.013726169
21	0x3c919e83	0.01777578
22	0x3cf0739f	0.029352007
23	0xbbfe3916	-0.00775827
24	0x3d3bf268	0.045885473
25	0xbaef69a8	-0.0018265741
26	0x3d574c88	0.05256322
27	0x3c024844	0.0079518
28	0x3b9fc446	0.0048756925
29	0x3ca54d4d	0.020178461
30	0x3d074fa6	0.033034943
31	0x3cb02f7a	0.021507014
32	0x3d95f2ff	0.073217385
33	0xbbb3f32d	-0.0054916353
34	0xbb4fc4a3	-0.0031702898
35	0x3bae3ac4	0.005317064
36	0x3d099674	0.03359075
37	0x3cd80266	0.026368331
38	0xbc2c6be6	-0.010523772
39	0x3c1b14ab	0.009465377
40	0x3d154522	0.036442883
41	0xbb5e957b	-0.003396361
42	0x3d3efc58	0.046627373
43	0x3ce8caaf	0.02841696
44	0x3d479f6e	0.04873603
45	0x3d37e5ba	0.04489682
46	0x3ca416d6	0.02003042
47	0x3cafe4c8	0.021471396
48	0x3d4fbc19	0.050716493
49	0x3c47dfb3	0.01219933
50	0xbbe74cd8	-0.007058721
51	0x3d2de83f	0.042457815
52	0xbc04e1bc	-0.00811046
53	0xbb76599e	-0.0037590037
54	0xbbcdfc7f	-0.0062862034
55	0xbc374c24	-0.011187587
56	0xbd3dd7d1	-0.046348397
57	0x3ce706a2	0.028201405
58	0x3d29a64d	0.041418362
59	0xba4f7298	-0.0007913499
60	0x3c1a69cd	0.009424639
61	0x3cdb35ec	0.02675911
62	0xbaf13ba5	-0.0018404616
63	0x3ca28d18	0.01984267
64	0xbc9e0301	-0.019288542
65	0x3d04c9f6	0.032419167
66	0xbc1ddad8	-0.009634696
67	0xbd1255e0	-0.035726428
68	0x3c4a115e	0.012333242
69	0xbd2a38f4	-0.04155822
70	0x3d5849c3	0.05280472
71	0x3d05ec30	0.03269595
72	0x3d389eb1	0.045073215
73	0xbb05cc5e	-0.0020416002
74	0x3d3492bc	0.04408525
75	0xbb927956	-0.004470031
76	0x3d42e975	0.047585923
77	0x3c2f35af	0.0106939515
78	0x3c8d91ff	0.01728153
79	0xbc36775d	-0.011136857
80	0x3d4c36e6	0.049857043
81	0xbc88bac4	-0.01669062
82	0x3cd34d6b	0.025793752
83	0x3bad4ee3	0.005288945
84	0x3bcd293d	0.0062610195
85	0xbce7678f	-0.028247623
86	0xbc2816f3	-0.010259378
87	0xbb935722	-0.004496471
88	0x3c41f626	0.0118384715
89	0xbb32ebb9	-0.0027301146
90	0xbbf5a151	-0.007496037
91	0x3cb4feb5	0.02209411
92	0x3c8a122a	0.016854364
93	0x3cf32e36	0.029685121
94	0x3cfdbd1d	0.030973965
95	0x3c1a3af4	0.00941347
96	0x3b895f82	0.0041922936
97	0xbd299c6f	-0.041408952
98	0xbc1dd54d	-0.009633374
99	0xbc034cc5	-0.008013909
100	0x3b1f88b6	0.002434296
101	0xb9a2b00e	-0.0003103022
102	0x3cc77f06	0.024352562
103	0xbbded55b	-0.0068003363
104	0xbc883878	-0.016628489
105	0x3ce1ac7d	0.02754807
106	0x3d5bb9f9	0.053644154
107	0xbd8e3128	-0.069429696
108	0xbb7ca3d7	-0.0038549805
109	0x3cd34d9e	0.025793847
110	0x3c0e4b38	0.008684926
111	0xbcaa731c	-0.020806842
112	0x3afad744	0.001913764
113	0xbc35b9d5	-0.011091669
114	0xbcc5ca60	-0.024144351
115	0x3c33d887	0.010976917
116	0x3c0040a1	0.007827909
117	0x3d574751	0.052558247
118	0x3c9ff7c9	0.019527333
119	0xbcda5522	-0.026651923
120	0xbb107b17	-0.0022046024
121	0x3d186545	0.037205953
122	0x3cc39777	0.023875935
123	0x3ccaafbd	0.024742002
124	0x3d5fd288	0.054644138
125	0x3c707f5a	0.0146788005
126	0x3adfefbe	0.0017084999
127	0x3d9796e8	0.0740183
128	0x3bc74221	0.006080881
129	0xbc3b9361	-0.011448712
130	0x3d017c78	0.031612843
131	0xbc8f1d39	-0.01746999
132	0xba3a3a79	-0.000710405
133	0x3d18868f	0.0372377
134	0xbba79ffd	-0.0051155076
135	0x3ba932be	0.0051635196
136	0x3c00b3cd	0.007855368
137	0x3bb509de	0.005524858
138	0xbc05af62	-0.00815949
139	0x3c7430c3	0.014904204
140	0x3d555d31	0.052090827
141	0x3b5c216d	0.003358926
142	0xbc2a0864	-0.010377977
143	0xbbe3c4ee	-0.006950966
144	0x3d4373fb	0.04771803
145	0x3d51312d	0.05107229
146	0x3d365365	0.044513125
147	0xb9914bb3	-0.00027712955
148	0x3d34b30c	0.044116065
149	0xbb3ad912	-0.0028510732
150	0x3d6f51e6	0.058427714
151	0x3c4f0086	0.012634402
152	0x3cc5e553	0.024157202
153	0xbc2319b7	-0.009954861
154	0x3d717198	0.058946222
155	0x3d030b39	0.031993125
156	0xba9dea32	-0.0012047945
157	0xba77dcbc	-0.0009455194
158	0x3d22d91f	0.039757844
159	0xbc83790a	-0.016048927
160	0xbc45f143	-0.012081447
161	0x3b91adbe	0.0044457605
162	0x3af93dcc	0.0019015609
163	0x3cd9437a	0.026521433
164	0x3d344025	0.044006485
165	0xbb9667c4	-0.0045900065
166	0x3cf782ae	0.03021368
167	0x3d25dc24	0.040493146
168	0x3d0811a9	0.033219967
169	0xbb757e71	-0.0037459398
170	0x3c4bb3a8	0.01243297
171	0xbd0da43b	-0.03458045
172	0x3ce8260e	0.028338458
173	0x3d114cfe	0.035473816
174	0x3ceeda27	0.029156758
175	0x3c0aebbe	0.008479057
176	0x3ab1518c	0.0013528331
177	0x3d1eec03	0.038799297
178	0x3bc35ff4	0.0059623662
179	0xbbf768eb	-0.007550349
180	0x3d371e71	0.044706766
181	0x3cee06eb	0.029056033
182	0xbc6920e0	-0.014229029
183	0x3bf64f75	0.0075167962
184	0xbb885ea1	-0.0041616713
185	0xbb2bd4dd	-0.0026219406
186	0x3d346eb8	0.044050902
187	0x3baa2c6e	0.0051932847
188	0x3d2d235c	0.04227005
189	0x3c80abf5	0.015706996
190	0x3d175bfd	0.03695296
191	0x3dacd656	0.08439319
192	0xbb2d6649	-0.0026458672
193	0x3c9b47f7	0.018955214
194	0x3b4383ec	0.002983327
195	0xb99378cf	-0.00028128034
196	0x3d259fc2	0.04043556
197	0x3d8c0e45	0.06838659
198	0xbc2df8c6	-0.010618394
199	0x3ca4682e	0.020069208
200	0x3d203aa9	0.039118443
201	0x3c6ef9c9	0.014585921
202	0xbb9a2a43	-0.004704745
203	0x3d4f2ffe	0.05058288
204	0x3d55ec96	0.05222758
205	0x3cc3e19f	0.023911295
206	0xbab72cbf	-0.0013975127
207	0xbc00f8f5	-0.007871856
208	0x3c8809f0	0.016606301
209	0x3c97b3e1	0.01851839
210	0xb9af403b	-0.00033426457
211	0xbbc31ad8	-0.0059541278
212	0x3b35d452	0.002774496
213	0x3b6499eb	0.0034881781
214	0xbbd92662	-0.00662689
215	0xbc70e256	-0.0147024
216	0x3cc9dcb0	0.024641365
217	0x3c8f44c1	0.01748884
218	0xbbed0961	-0.007233784
219	0xbd9e6d05	-0.077356376
220	0x3ca77a01	0.020443918
221	0x3ca16623	0.019702023
222	0xbc318c63	-0.010836693
223	0x3c825cca	0.015913386
224	0x3d6518a4	0.055931702
225	0x3d4a09cf	0.04932576
226	0xbc6c9682	-0.014440181
227	0xbbac42da	-0.0052569928
228	0xbc008c76	-0.0078459885
229	0xbc89ad75	-0.016806344
230	0x3cb29c06	0.021802913
231	0x3d428b75	0.047496278
232	0x3d5d727f	0.05406427
233	0x3d057d32	0.0325901
234	0xbd401e43	-0.04690386
235	0x3ba434cf	0.005011178
236	0xbd717112	-0.058945723
237	0x3b3c5d1e	0.0028742026
238	0xbc855bba	-0.01627909
239	0x3d00b4af	0.031422313
240	0xbcbb4725	-0.022861073
241	0x3ccd41f4	0.025055863
242	0x3c088a08	0.00833369
243	0x3bed0517	0.007233273
244	0x3c84df6c	0.016219817
245	0x3bed5d17	0.007243763
246	0x3d3a1b27	0.04543605
247	0x3d175415	0.03694542
248	0xbc6f0888	-0.014589436
249	0x3ca43336	0.02004395
250	0x3c7c1ae5	0.0153872715
251	0x3c4b5672	0.012410747
252	0x3d348f89	0.0440822
253	0x3d4880cc	0.048950955
254	0xbc8f417b	-0.017487278
255	0xbd57206e	-0.05252116

sequential/dense_1/BiasAdd/ReadVariableOp/resource f4 [128]
0	0xbbd13182	-0.0063840756
1	0x3d38a942	0.04508329
2	0x3c987cc6	0.018614184
3	0x3c4acb8e	0.012377633
4	0x3c8c5672	0.017131064
5	0x3c78bd95	0.015181919
6	0x3c667c60	0.014067739
7	0x3cce0ff5	0.025154093
8	0xbc4b721a	-0.012417341
9	0xbc8b78f8	-0.017025456
10	0x3cd681c2	0.02618492
11	0x3c6a22da	0.014290536
12	0xbc57133d	-0.013127145
13	0x3d36ca48	0.044626504
14	0xbbd9757c	-0.0066363197
15	0xbc673b10	-0.014113203
16	0x3d1742cf	0.036928948
17	0x3ce75b28	0.028241709
18	0x3d52fea3	0.05151237
19	0xbbc91fea	-0.0061378377
20	0x3cc664f8	0.024218068
21	0x3d276d55	0.04087575
22	0x3d0a864d	0.033819485
23	0x3c9b8fda	0.018989492
24	0x3cdceb59	0.026967691
25	0x3cc5d43d	0.024149055
26	0x3d0fd35a	0.03511367
27	0xbc024b2b	-0.007952492
28	0x3c81f10d	0.015862012
29	0xb95c1bc3	-0.00020991177
30	0xbc8f80f8	-0.017517552
31	0x3d290fb4	0.04127474
32	0x3cd2166c	0.025645457
33	0x3c9775ea	0.018488843
34	0x3c4d9baa	0.01254932
35	0x3c97cda9	0.018530684
36	0x3d8f4cfc	0.069971055
37	0x3d8b826b	0.06811985
38	0x3c7588ae	0.0149862
39	0x3c964349	0.018342631
40	0xbbeaee79	-0.0071695414
41	0x3ccf35d8	0.02529423
42	0x3d1ce2ad	0.038302112
43	0x3c26a6a7	0.010171569
44	0x3d1aa4d9	0.037754867
45	0x3cf7c8ca	0.03024711
46	0x3cad356a	0.021143634
47	0x3ac2003a	0.0014801093
48	0x3d499857	0.04921755
49	0x3d17f240	0.037096262
50	0xbc021aca	-0.007940957
51	0xbc8c6930	-0.017140001
52	0xbc28a47e	-0.010293124
53	0x3cb36e36	0.021903139
54	0x3cde3d53	0.027128851
55	0xbc22ecb1	-0.009944127
56	0x3d33d947	0.043908384
57	0x3d1ece8a	0.03877119
58	0x3c6f3f97	0.014602563
59	0x3cd0f477	0.025507195
60	0x3d3268a0	0.04355681
61	0x3c93a080	0.018020868
62	0xbc3ec64c	-0.011643957
63	0x3c7dc7c3	0.015489521
64	0xbc17e03d	-0.009269771
65	0x3cdb88dc	0.026798658
66	0x3d88f91c	0.06688139
67	0x3aa88af3	0.0012858793
68	0x3c5a59f3	0.01332711
69	0x3d18c106	0.037293456
70	0x3cf98479	0.030458676
71	0x3bf14761	0.0073632454
72	0x3c75fa87	0.015013344
73	0x3c6e7d7a	0.014556283
74	0xbaabc33e	-0.0013104451
75	0xbb8a6d09	-0.004224424
76	0xbbd638a1	-0.0065375124
77	0x3d4733b4	0.048633292
78	0x3bc5451a	0.0060202004
79	0x3d2259a2	0.03963626
80	0x3aa61c01	0.0012673141
81	0x3ce2a570	0.027666777
82	0xbb5ca63b	-0.0033668417
83	0x3c2e7002	0.010646822
84	0x3d24b867	0.040214922
85	0x3c9a12bb	0.01880776
86	0x3cb7fd10	0.022459537
87	0x3d44e5b3	0.04807062
88	0x3cc23ca2	0.023710553
89	0x3d35f78e	0.04442554
90	0x3ccf053a	0.025271047
91	0x3d6d81f1	0.05798525
92	0xbc6b7657	-0.014371476
93	0x3d3b2c6a	0.045696653
94	0x3bf69e79	0.0075262156
95	0x3b907509	0.004408483
96	0x3c94bac1	0.018155457
97	0xbc9d1a20	-0.019177496
98	0x3d982667	0.074292
99	0x3cabb706	0.020961296
100	0x3c4960d4	0.012291152
101	0x3b35d6df	0.0027746481
102	0xbcd0e8d7	-0.025501652
103	0xbc38f88c	-0.011289727
104	0x3d2c9b53	0.042140316
105	0x3cc2ef1a	0.023795653
106	0x00000000	0.0
107	0x3b1f9938	0.00243528
108	0xbb210c74	-0.0024574073
109	0x3d1b223b	0.03787444
110	0xbadbaa73	-0.0016759172
111	0xbc4b1cca	-0.012397001
112	0xbc1c88c1	-0.009554089
113	0x3c115f90	0.0088728815
114	0xbbbaf79c	-0.005705787
115	0x3d44927b	0.047991257
116	0xbcbd4371	-0.023103448
117	0x3d058fc6	0.032607816
118	0x3d31917e	0.043351643
119	0x3cbf2658	0.023333713
120	0x3c3d7a0b	0.011564742
121	0x3ac99865	0.00153805
122	0x3c1500b7	0.009094409
123	0x3c6171a0	0.0137600005
124	0x3cddd7fa	0.027080525
125	0x3ba7bc9f	0.005118921
126	0x3d884138	0.066530645
127	0x3d31a4d8	0.043370098

sequential/dense_2/BiasAdd/ReadVariableOp/resource f4 [64]
0	0xbbf2f63e	-0.0074146083
1	0xbc268335	-0.010163118
2	0x3d545448	0.05183819
3	0x3cb8489b	0.022495558
4	0x3d0a312a	0.033738293
5	0x3d247947	0.04015472
6	0x3cbaf96a	0.022824008
7	0x3cc91282	0.024544958
8	0x3d7b6a13	0.061380457
9	0x3d50a71c	0.050940618
10	0x3d4867e6	0.04892721
11	0x3b9330ca	0.0044919
12	0x3b172833	0.0023064732
13	0xbbf3097d	-0.0074169026
14	0x3ca3bede	0.019988474
15	0x3d0e524f	0.034746464
16	0x3d3b44bd	0.04571985
17	0x3c5e1774	0.013555396
18	0xbce2d1bf	-0.027687905
19	0xbc429576	-0.011876455
20	0x3bce987e	0.0063047996
21	0xbb8d417e	-0.004310786
22	0x3caf484c	0.021396779
23	0x3cc63195	0.024193564
24	0x3d2ec5d4	0.042669132
25	0x3ccd2c2d	0.025045479
26	0x3b03fac4	0.0020138482
27	0x3d2ba7e3	0.041908156
28	0xbc4d7a0d	-0.012541306
29	0xbc475689	-0.012166628
30	0xbc09991b	-0.00839832
31	0x3c474dc7	0.01216454
32	0x3b7915e6	0.0038007437
33	0x3b3ddfb4	0.0028972449
34	0x3c9cf559	0.01915996
35	0x3d4b6ff5	0.049667317
36	0x3cbc0b08	0.022954479
37	0x3d163c41	0.036678556
38	0x3d74c8f7	0.059761968
39	0x3ce34d90	0.027746946
40	0x3d128e07	0.03577998
41	0x3cccd03a	0.025001634
42	0xbc2185b6	-0.009858539
43	0xbc1daf51	-0.009624318
44	0x3d1730ea	0.036911882
45	0x3cd1c7d9	0.02560799
46	0xbbe0cd1f	-0.00686039
47	0x3c6de504	0.014519934
48	0x3cd13c71	0.025541516
49	0x3d2b5417	0.04182824
50	0x3c01daca	0.0079256985
51	0x3cdab982	0.026699785
52	0x3a2ae65c	0.00065193116
53	0x3cc9ed36	0.024649244
54	0xbc36bfb3	-0.011154103
55	0x3d240762	0.040046103
56	0x3c11e576	0.008904805
57	0xbd440c1b	-0.047863107
58	0xbbcd2a02	-0.0062611112
59	0x3d086590	0.033299983
60	0x3d42bb38	0.047541827
61	0x3ce3d970	0.027813643
62	0xbc43c036	-0.011947682
63	0x3ccc447b	0.024934998

sequential/dense_3/BiasAdd/ReadVariableOp/resource f4 [2]
0	0x3ca1135d	0.019662553
1	0xbca1135d	-0.019662553

sequential/dense/MatMul f4 [256, 129]
0	0x3e4388ef	0.19095205
1	0xbe0b0922	-0.13577703
2	0x3e3e9996	0.18613276
3	0xbb6ec5a9	-0.0036433733
4	0x3d2091a3	0.03920139
5	0x3c83c447	0.016084803
6	0x3dffdaac	0.1249288
7	0x3c091bf6	0.008368483
8	0x3d85499c	0.065081805
9	0x3de95ba1	0.1139443
10	0xbd94d2a2	-0.072667375
11	0x3d7e91cb	0.062150758
12	0xbdb7657d	-0.08954904
13	0x3e2e8601	0.17043306
14	0xbe71f220	-0.2362752
15	0x3d392d5c	0.045209274
16	0x3e2231b3	0.15839271
17	0xbc80453f	-0.01565802
18	0x3e147705	0.14498527
19	0xbd38556b	-0.045003336
20	0x3d546b0a	0.051859893
21	0x3c9cd150	0.019142777
22	0xbe115902	-0.1419411
23	0xbb82a172	-0.003986531
24	0x3c8ee122	0.017441336
25	0xbdcae203	-0.099063896
26	0x3cf839b3	0.03030095
27	0x3e513b85	0.20432861
28	0xbe67feff	-0.22655867
29	0x3e7a5b2f	0.24448846
30	0xbeb1d901	-0.34735873
31	0x3d276797	0.040870275
32	0xbd18ad08	-0.03727439
33	0x3dc167c2	0.09443618
34	0xbd85499e	-0.06508182
35	0xbdaf1bf8	-0.085502565
36	0x3e052480	0.13002205
37	0xbdc89e38	-0.09795803
38	0xbe65a67d	-0.22426791
39	0x3df327b2	0.11872806
40	0xbdc7c2ec	-0.09753975
41	0x3d11a661	0.035559062
42	0x3e0e94ab	0.139239
43	0x3da88873	0.082291506
44	0xbe32eee3	-0.1747394
45	0xbd871a79	-0.06596846
46	0xbe49f174	-0.19721013
47	0x3e0bbe31	0.13646771
48	0xbc61026b	-0.013733487
49	0xbd9cbf4c	-0.076536745
50	0x3e1bfe2b	0.15233676
51	0x3db9c5aa	0.090709046
52	0xbe274094	-0.16333228
53	0x3e5195b8	0.2046727
54	0xbe362581	-0.17787744
55	0xbe5a8894	-0.21341163
56	0x3d85a479	0.06525511
57	0xbe5b4f71	-0.21417023
58	0xbd205bbe	-0.039149992
59	0xbe0c790d	-0.13718052
60	0x3ddaff6e	0.106932506
61	0xbe576abc	-0.2103681
62	0xbe9333d5	-0.28750482
63	0x3db616c8	0.08891064
64	0xbe834b5c	-0.25643432
65	0x3dd7013f	0.104982845
66	0xbe16643f	-0.14686678
67	0x3c5e9e11	0.013587491
68	0xbd91f99d	-0.07127688
69	0x3d6c263b	0.057653647
70	0xbe83b1f3	-0.25721702
71	0x3dad3189	0.08456714
72	0xbe8f2f10	-0.27965593
73	0x3cc12ea6	0.023581814
74	0xbdecddff	-0.1156578
75	0x3e2090e5	0.15680273
76	0xbe6701e5	-0.22559316
77	0x3db5624b	0.088566385
78	0xbe2bccf6	-0.16777405
79	0xbe2991b1	-0.16559483
80	0x3e8ef586	0.27921695
81	0xbecef842	-0.4042378
82	0xbd82027a	-0.063481286
83	0xbe25026b	-0.16114204
84	0x3d87cb74	0.066306025
85	0xbe410ca5	-0.1885248
86	0xbe40df14	-0.18835098
87	0xbdd13128	-0.10214454
88	0x3e2ac6fa	0.16677466
89	0xbdb44f71	-0.08804215
90	0xbe08a5ce	-0.133445
91	0xbe349dd4	-0.17638332
92	0xbb9be63e	-0.0047576716
93	0xbd96371b	-0.07334729
94	0xbe950fca	-0.2911361
95	0xbeadff06	-0.3398363
96	0x3de50837	0.111832075
97	0xbe987d61	-0.29783157
98	0xbe92050f	-0.28519484
99	0xbd006a28	-0.03135124
100	0xbe4183f9	-0.18898
101	0x3e285cbb	0.16441624
102	0xbe3657f9	-0.17806996
103	0xbe792fe9	-0.24334683
104	0x3e0b0ce8	0.13579142
105	0xbdef37d5	-0.11680571
106	0xbdf5cd1d	-0.12002013
107	0xbcc102b8	-0.023560867
108	0xbdc68961	-0.09694172
109	0xbe4281db	-0.18994848
110	0xbe9eef01	-0.3104172
111	0xbe321d0d	-0.17393894
112	0xbd839dfb	-0.06426617
113	0xbe147142	-0.1449633
114	0xbe64cac1	-0.2234297
115	0xbdf90080	-0.121582985
116	0xbc8a0770	-0.01684925
117	0xbdef42cf	-0.116826646
118	0xbe59bf77	-0.21264444
119	0xbd092f91	-0.03349263
120	0xbdce03bd	-0.10059307
121	0x3b965b0d	0.004588491
122	0xbe8d5e83	-0.2761117
123	0xbe48b447	-0.1960002
124	0xbe3d3f5f	-0.18481205
125	0xbdff5d5d	-0.124689795
126	0xbe8c3413	-0.2738348
127	0xbe23b543	-0.15987115
128	0xbe68962c	-0.22713536
129	0xbdb7b10e	-0.089693174
130	0x3d8bc183	0.06824019
131	0xbcf3f47a	-0.029779661
132	0xbe0ec77b	-0.13943283
133	0x3c714bdb	0.014727558
134	0x3c21ebaf	0.0098828515
135	0x3e0de96b	0.13858573
136	0xbdc9ce20	-0.09853768
137	0x3d8c8466	0.068611905
138	0xbdfa2f79	-0.12216086
139	0xbe7941bf	-0.24341486
140	0x3c86555a	0.01639812
141	0x3e05fea2	0.13085416
142	0xbdbe0b1f	-0.09279465
143	0xbe8ec8f5	-0.27887693
144	0xbcf69808	-0.030101791
145	0x3e627481	0.22114755
146	0xbe63a288	-0.2222997
147	0x3d42851a	0.047490217
148	0x3d427dd6	0.047483288
149	0xbdea1909	-0.11430556
150	0xbcc66c48	-0.024221554
151	0xbd3f1bba	-0.0466573
152	0x3e3f26c2	0.18667129
153	0xbe8b1254	-0.2716242
154	0x3e8a43ef	0.27004954
155	0xbda4d0fd	-0.08047674
156	0x3dfc508a	0.12320049
157	0xbcec70f1	-0.028862448
158	0x3e2f5a92	0.17124394
159	0x3e6aa893	0.22915868
160	0xbd8f3c83	-0.069939636
161	0x3da0b92a	0.07847817
162	0xbe1dbff1	-0.15405251
163	0xbd3c1c63	-0.04592551
164	0x3daf83b1	0.0857004
165	0x3d35818c	0.044313
166	0xbd641c0b	-0.055690806
167	0x3d13a9fe	0.03605079
168	0x3e48cd62	0.19609597
169	0xbdf3a725	-0.11897115
170	0x3e1695b9	0.14705552
171	0xbe38f82e	-0.18063423
172	0xbe74e90e	-0.23917028
173	0x3e809380	0.25112534
174	0xbdc7a3fb	-0.09748074
175	0x3db6ceea	0.089261845
176	0x3d33699f	0.0438019
177	0xbdcbd71e	-0.0995314
178	0x3c31595c	0.010824528
179	0x3da256d3	0.07926717
180	0xbe3e7c0f	-0.18602012
181	0x3e96f4ef	0.29483745
182	0xbea09b65	-0.31368557
183	0x3d10352d	0.035206962
184	0xbe184904	-0.14871603
185	0xbd03fb4a	-0.03222207
186	0xbda746a0	-0.081677675
187	0xbe37e64d	-0.17958947
188	0xbccc7c18	-0.024961516
189	0x3e30eea2	0.17278531
190	0xbc45e394	-0.012078185
191	0xbde64c79	-0.11245055
192	0xbdb38ab1	-0.08766688
193	0x3ce36849	0.027759688
194	0x3db0a947	0.08626037
195	0xbe02f2f4	-0.12787992
196	0x3e129fc4	0.14318758
197	0xbde4e902	-0.11177255
198	0xbd62b1ac	-0.055345222
199	0xbe2ac511	-0.16676737
200	0x3d97b537	0.07407611
201	0xbda53efd	-0.08068655
202	0xbdd0ebda	-0.10201235
203	0xbdbccec0	-0.09219122
204	0xbe005cfa	-0.12535468
205	0x3df2406a	0.11828692
206	0xbde5ca70	-0.112202525
207	0xbe0b5590	-0.13606858
208	0xbd690a8a	-0.056894816
209	0xbd6769c5	-0.056497354
210	0xbc14ea44	-0.009089056
211	0xbc93739c	-0.017999463
212	0xbe1e1b83	-0.15440182
213	0x3e7ba9c9	0.24576487
214	0xbe4aeb46	-0.19816312
215	0x3d8a8ce8	0.06765157
216	0x3e1915d3	0.14949732
217	0xbdf5e06e	-0.12005697
218	0x3d08ba21	0.03338063
219	0x3cefa6e1	0.029254379
220	0x3da8473e	0.08216713
221	0x3c047d6d	0.008086544
222	0x3d2f4da1	0.042798642
223	0xbc23d41c	-0.009999301
224	0x3ca48372	0.02008221
225	0x3dd8b37c	0.10581109
226	0xbc71f905	-0.014768844
227	0xbe392db3	-0.18083839
228	0xbd90b141	-0.070650585
229	0x3db74712	0.089491025
230	0x3a4de2a1	0.00078539
231	0xbdd04a11	-0.10170377
232	0xbe73521a	-0.23761788
233	0x3d3ea849	0.046547208
234	0xbe671ee4	-0.22570378
235	0x3da6255b	0.08112594
236	0x3b4359dc	0.00298082
237	0x3de29deb	0.11065277
238	0xbe56bdce	-0.20970842
239	0xbdbc9f18	-0.09210032
240	0xbdc8fe0f	-0.09814083
241	0x3dc3294f	0.09529363
242	0xbdd94399	-0.10608596
243	0xbcbdf121	-0.023186268
244	0xbd1b4508	-0.03790763
245	0x3e24b676	0.16085228
246	0x3b018f2d	0.0019769177
247	0x3db2f3b3	0.08737888
248	0x3dfdb3f1	0.12387837
249	0xbdd7d0be	-0.10537861
250	0x3e06cbf0	0.13163733
251	0xbde67371	-0.112524875
252	0x3d12fa49	0.03588322
253	0xbc6889e4	-0.014193032
254	0xbe274dda	-0.16338292
255	0x3c0fcd3d	0.00877696

sequential/dense_1/MatMul f4 [128, 256]
0	0x3d80b18d	0.06283865
1	0x3d61119c	0.054948434
2	0x3c7a189a	0.0152646545
3	0xbdafe395	-0.0858833
4	0x3dc054ad	0.093911506
5	0xbdbaa1ac	-0.09112868
6	0xbd59f608	-0.05321315
7	0x3dc93c06	0.09825902
8	0xbdf47738	-0.11936802
9	0xbd0bfe28	-0.03417793
10	0x3dcef803	0.10105898
11	0xbca7e5b6	-0.020495277
12	0xbcebce17	-0.028784795
13	0x3dea9b68	0.11455423
14	0x3be54f6d	0.0069979937
15	0x3d2599ac	0.040429756
16	0xbcc9489b	-0.024570754
17	0x3dc0ccfd	0.094140984
18	0xbd94c61f	-0.07264351
19	0xbda5b492	-0.08091082
20	0x3dc24821	0.09486414
21	0x3bf3f4fd	0.0074449764
22	0xbde4273f	-0.11140298
23	0xbd410c39	-0.047130797
24	0x3cd41cc9	0.025892632
25	0xbd8e5cab	-0.06951269
26	0x3ccd68bf	0.02507436
27	0x3dcfaead	0.10140739
28	0x3d9acc47	0.07558494
29	0x3df446cb	0.11927565
30	0xbc6fc503	-0.014634374
31	0x3da557b0	0.08073366
32	0xbd2212b1	-0.039568607
33	0x3da3c168	0.07995874
34	0xbdc4b74c	-0.096052736
35	0x3df0e329	0.11762077
36	0x3de76c59	0.112999626
37	0x3cf36a60	0.02971381
38	0xbdce8222	-0.100834146
39	0xbc5ccba0	-0.013476282
40	0x3d999021	0.074981935
41	0xbdd1f93a	-0.10252614
42	0xbc9f321f	-0.01943308
43	0xbb8f3c9c	-0.004371239
44	0x3ce473a1	0.027887167
45	0xb9eb4808	-0.0004487636
46	0x3e002e58	0.12517679
47	0xbd7e684f	-0.062111195
48	0xbde9df7b	-0.11419579
49	0xbdae8208	-0.08520895
50	0x3dac78f0	0.084215045
51	0x3d87ee4a	0.06637247
52	0xbd85469a	-0.06507607
53	0xbdf73db5	-0.120723166
54	0x3dc12190	0.0943023
55	0x3d97f052	0.07418884
56	0xbba75010	-0.0051059797
57	0x3df33eb2	0.118771926
58	0x3dacf064	0.084442884
59	0x3d4f1461	0.050556544
60	0x3d2a230f	0.04153734
61	0x3b029065	0.0019922492
62	0xbdb595f0	-0.08866489
63	0x3c77e568	0.015130378
64	0xbd645424	-0.055744305
65	0xbc893ee3	-0.01675362
66	0xbdcf2c91	-0.10115922
67	0xbbd5cfa2	-0.006524996
68	0x3d09a4d8	0.033604473
69	0x3cbf2c12	0.023336444
70	0xbdb39f7f	-0.08770656
71	0x3d15cbe9	0.036571417
72	0xbd93ccad	-0.07216773
73	0xbde3bf95	-0.11120526
74	0xbd918a0a	-0.07106407
75	0x3da47169	0.08029444
76	0xbd8e163f	-0.06937837
77	0xbc550884	-0.013002519
78	0xbdef78f0	-0.11692989
79	0xbc708fc6	-0.014682716
80	0x3d37f610	0.044912398
81	0x3d6ed287	0.058306243
82	0xbdf06c27	-0.117393784
83	0x3dd47ec9	0.10375745
84	0x3d802fae	0.06259094
85	0xbddf6a62	-0.10908963
86	0xbd89f3e9	-0.06735975
87	0x3c5470aa	0.012966314
88	0x3d8e8679	0.069592424
89	0xbdd153a0	-0.10221028
90	0xbca1f486	-0.019769918
91	0xbddd7f7e	-0.10815333
92	0xbde5f6e2	-0.1122873
93	0xbd141a97	-0.03615817
94	0xbdb98223	-0.09058025
95	0x3db7c35f	0.08972811
96	0xbdfe240c	-0.12409219
97	0xbd041d6b	-0.032254618
98	0xbda02b80	-0.07820797
99	0xbdc394ca	-0.09549864
100	0xbcbc8e02	-0.023016933
101	0x3d36fab6	0.04467269
102	0xbcd3f330	-0.025872797
103	0xbbd78382	-0.0065769562
104	0xbdcfa3c2	-0.10138656
105	0x3dc2b542	0.095072284
106	0x3d644718	0.055731863
107	0x3d862eef	0.065519206
108	0xbde1bc71	-0.110222705
109	0x3da2639e	0.07929157
110	0x3df46d7c	0.11934945
111	0xbd601196	-0.05470427
112	0xbdc1476c	-0.09437451
113	0xbdc8f11b	-0.09811612
114	0x3d981e05	0.07427601
115	0xbcafd45d	-0.021463567
116	0xbdcad16d	-0.09903226
117	0xbce95a01	-0.0284853
118	0xbd7b835f	-0.061404582
119	0xbd38f508	-0.045155555
120	0xbd36d209	-0.0446339
121	0x3d28dd95	0.041226942
122	0x3d34ff5a	0.044188835
123	0x3de3ff1f	0.11132645
124	0xbd1eedad	-0.038800884
125	0xbce0987a	-0.027416456
126	0x3d90ec59	0.0707633
127	0xbdbbc5ae	-0.09168564
128	0xbdb01d28	-0.08599311
129	0xbddb230b	-0.10700043
130	0xbca39da8	-0.019972637
131	0x3dfeb5ab	0.12436994
132	0x3d8a72d2	0.067601815
133	0xbbbc3718	-0.0057438724
134	0xbcb35212	-0.02188972
135	0xbca03d8a	-0.019560594
136	0x3cc16ee6	0.02361245
137	0xbcaa9310	-0.020822078
138	0x3c8b6bf5	0.017019251
139	0xbdbb214a	-0.09137209
140	0x3c8f8225	0.017518112
141	0x3d49aaf7	0.04923531
142	0xbd52f446	-0.05150249
143	0xbdc21f20	-0.09478593
144	0xbe00cb6a	-0.12577596
145	0xbdd0fccd	-0.10204468
146	0x3e007928	0.12546217
147	0x3ceee3b2	0.029161308
148	0xbdfefcf9	-0.124505945
149	0xbdfd131f	-0.12357163
150	0xbdbe93a7	-0.09305506
151	0x3daf32bd	0.085545994
152	0xbacb4b0c	-0.0015510037
153	0x3d95deca	0.07317884
154	0x3d587174	0.052842572
155	0xbd7507ca	-0.05982188
156	0xbd9ec392	-0.07752146
157	0x3db39f1f	0.08770584
158	0x3d56d61f	0.052450296
159	0x3d2911da	0.04127679
160	0x3c80c354	0.01571814
161	0xba8e609f	-0.0010862536
162	0xbd416f00	-0.047225
163	0x3cf830fb	0.030296793
164	0x3d96a201	0.073551185
165	0x3d1210d8	0.035660595
166	0xbd86fe7b	-0.06591507
167	0xbc0b55d6	-0.008504352
168	0x3da5678a	0.08076389
169	0xbd91e97b	-0.07124611
170	0xbe01780c	-0.1264345
171	0xbde8da85	-0.11369804
172	0x3d0db255	0.0345939
173	0xbdeee834	-0.11665383
174	0xbdf9cd97	-0.12197416
175	0xbd59eabb	-0.053202372
176	0x3d4b6714	0.04965885
177	0xbdf5a051	-0.119934686
178	0x3bdbf285	0.00671226
179	0x3dcee00f	0.101013295
180	0xbe043849	-0.12912096
181	0xbcb8b316	-0.022546332
182	0xbd9dbde8	-0.07702237
183	0xbd6a07fe	-0.05713653
184	0xbd7a1876	-0.061058484
185	0xbd735436	-0.05940648
186	0x3bfe8cba	0.0077682408
187	0x3cedd274	0.029031016
188	0xbccd0dcd	-0.025030995
189	0x3dbd5f13	0.092466496
190	0x3d83404d	0.06408749
191	0xbde2a5a6	-0.11066751
192	0x3cef911c	0.029243998
193	0xbc3ba15a	-0.011452043
194	0x3dd675d2	0.10471691
195	0x3c7537fa	0.014966959
196	0x3c9e0b39	0.01929246
197	0xbdebc7ae	-0.11512695
198	0x3d9c1c07	0.07622533
199	0xbd49cd36	-0.04926797
200	0x3d550aa0	0.052012086
201	0xbd0aa014	-0.03384407
202	0xbcad3198	-0.021141812
203	0x3dd43bd0	0.10362971
204	0xbad01afc	-0.0015877183
205	0xbd805d10	-0.0626775
206	0xbc822a07	-0.01588918
207	0xbdd3cd56	-0.10341899
208	0xbdb89f96	-0.090148136
209	0xbdfe3adf	-0.124135725
210	0xbd0b0333	-0.033938598
211	0xbc5dbd89	-0.013533958
212	0xbd7d8866	-0.061897658
213	0x3cde6102	0.027145866
214	0xbdad9c64	-0.08477095
215	0x3d9a669a	0.07539101
216	0x3d8a3dd2	0.067500725
217	0x3b490527	0.0030673237
218	0xbdfc075e	-0.12306093
219	0xbdf3f159	-0.11911268
220	0x3cc80a72	0.024419043
221	0xbd7a2cda	-0.06107793
222	0x3dc57174	0.0964078
223	0xbdc51310	-0.096227765
224	0xbdae1c3c	-0.08501479
225	0x3dd6fc73	0.104973696
226	0xbbfe4682	-0.00775987
227	0xbdb91ea9	-0.09039051
228	0xbd05d0df	-0.032669898
229	0x3b4ccd75	0.0031250392
230	0x3d195971	0.037438814
231	0xbca5fa51	-0.020260962
232	0x3d89d526	0.06730108
233	0x3d475b76	0.04867121
234	0xbd808111	-0.062746175
235	0x3d07a09a	0.033112146
236	0xbdcf37b0	-0.101180434
237	0xbdae0a9f	-0.084981196
238	0xbdfddba8	-0.12395412
239	0x3d3405f6	0.043950997
240	0x3d273941	0.040826086
241	0x3dcb9218	0.099399745
242	0xbd8588d4	-0.065202385
243	0xbe0440b7	-0.12915312
244	0x3cba5ad4	0.022748388
245	0xbdac6d52	-0.08419289
246	0x3dd382ff	0.1032772
247	0x3d4ba695	0.049719412
248	0x3dc0871b	0.09400769
249	0xbc7ecb1e	-0.015551357
250	0xbdfd4097	-0.12365835
251	0x3ca794fc	0.020456783
252	0xbdbc2e80	-0.09188557
253	0xbd448c39	-0.04798529
254	0x3dc447b8	0.09583992
255	0xbc7581dc	-0.014984574

sequential/dense_2/MatMul f4 [64, 128]
0	0x3e1fe1db	0.15613501
1	0x3dd25b6b	0.10271343
2	0xbe13c3a9	-0.14430107
3	0xbcdd3b68	-0.027005866
4	0x3dc64d43	0.09682705
5	0xbd91048b	-0.07080945
6	0xbe149683	-0.1451054
7	0x3d116d44	0.035504594
8	0xbd9c634c	-0.07636127
9	0xbd4334bc	-0.047657713
10	0xbd906ee3	-0.070524
11	0x3db94165	0.09045676
12	0x3ca97d68	0.020689681
13	0xbd3a01bb	-0.045411807
14	0xbd73512d	-0.059403587
15	0xbe1b54fc	-0.15169138
16	0x3de65b9a	0.1124794
17	0x3da6ebba	0.0815043
18	0x3da4ec7a	0.08052917
19	0x3dc3f5c6	0.09568362
20	0xbdc7b30b	-0.097509466
21	0x3c62f0cc	0.013851356
22	0x3cbccef7	0.023047907
23	0xbd57085a	-0.0524982
24	0xbd014e4b	-0.031568807
25	0xbe1044b4	-0.14088708
26	0xbd6ed76c	-0.05831091
27	0x3d7672f0	0.060168207
28	0x3e1cd2d7	0.15314804
29	0x3db4c4d2	0.08826603
30	0x3c9b7710	0.018977672
31	0xbd105a79	-0.03524253
32	0xbe19afee	-0.15008518
33	0x3d9957e3	0.07487466
34	0xbc5be440	-0.013421118
35	0xbd04fb46	-0.032466196
36	0x3a9a08a0	0.0011751838
37	0xbe30b040	-0.17254734
38	0xbe30e8f9	-0.17276372
39	0xbd9cb9bf	-0.07652616
40	0x3d9ee0dd	0.07757733
41	0x3d25b5ef	0.04045671
42	0x3d9d1486	0.0766993
43	0xbe2b7586	-0.1674405
44	0x3d8e039f	0.069342844
45	0x3dd7fc42	0.10546161
46	0x3d814f36	0.063139364
47	0xbcef4357	-0.029206915
48	0xbd55ee23	-0.052229058
49	0xbdaf99d4	-0.08574262
50	0xbdbe25fa	-0.09284587
51	0x3dc63faa	0.09680112
52	0x3dec2cef	0.11532008
53	0xbddbf099	-0.1073925
54	0xbd9afc07	-0.07567602
55	0xbe24b1a9	-0.16083397
56	0x3e2a7c54	0.1664899
57	0xbe3a5ad2	-0.18198708
58	0xbdb62d03	-0.08895304
59	0x3bdfd400	0.0068306923
60	0x3dd908bc	0.10597369
61	0xbc64b2d9	-0.013958656
62	0xbd24bac5	-0.04021718
63	0x3dfc4513	0.12317862
64	0x3e26a49d	0.16273732
65	0x3d481a0e	0.048852973
66	0x3d5a7549	0.053334508
67	0x3e2ba6e6	0.16762885
68	0xbdd8ca3f	-0.105854504
69	0x3e19288f	0.14956878
70	0x3b2b1d40	0.0026109964
71	0xbe0ddbb3	-0.1385334
72	0xbe16d6db	-0.14730398
73	0x3e0d9a59	0.1382841
74	0x3d0a0a49	0.033701215
75	0xbddf99aa	-0.10917981
76	0xbdf806a2	-0.1211064
77	0xbdefecbc	-0.117150754
78	0xbe0ef278	-0.13959682
79	0xbdf38721	-0.11891008
80	0xbc10cbca	-0.00883765
81	0xbcf67634	-0.03008566
82	0xbdbeb29b	-0.0931141
83	0xbdd26f87	-0.102751784
84	0xbd8ade9a	-0.06780739
85	0xbb23a980	-0.0024972856
86	0x3be5247d	0.006992875
87	0x3e04ecb8	0.12980926
88	0x3dd38319	0.10327739
89	0xbdc9dd0d	-0.09856615
90	0xbc1ef469	-0.009701827
91	0xbd9b0c75	-0.07570735
92	0xbdba793f	-0.09105157
93	0x3e263fe6	0.16235313
94	0xbe1893b5	-0.14900096
95	0xbda9df28	-0.08294517
96	0xbe1b3d92	-0.15160206
97	0xbcd7ee64	-0.02635879
98	0xbdbabfe6	-0.09118633
99	0xbdd7390d	-0.105089284
100	0xbcdee8c0	-0.027210593
101	0xbe04bab2	-0.12961844
102	0xbdb874e4	-0.0900667
103	0x3db73216	0.089451
104	0x3e290da3	0.16509108
105	0xbd9a2294	-0.075261265
106	0xbddb4239	-0.1070599
107	0xbe32a4c4	-0.17445666
108	0x3dc9916e	0.09842192
109	0x3df78e8a	0.12087734
110	0xbe2eb1da	-0.17060032
111	0x3e29d408	0.1658479
112	0x3deac05e	0.114624724
113	0xbdff68e0	-0.12471175
114	0xbdb76ee5	-0.08956698
115	0xbe019383	-0.12653928
116	0xbcd4e1ef	-0.02598664
117	0xbe2108bf	-0.15725993
118	0x3ddb19fd	0.10698316
119	0x3dae081c	0.084976405
120	0x3d9033f7	0.070411615
121	0xbd1910a7	-0.037369397
122	0xbbc2e2f8	-0.005947467
123	0x3d21abe4	0.03947057
124	0xbe0e0bbc	-0.13871664
125	0x3e1ae549	0.15126528
126	0xbdc09479	-0.09403319
127	0xbde63f11	-0.11242498
128	0xbd8e5c77	-0.0695123
129	0x3df5c19e	0.1199982
130	0x3dd7433e	0.10510872
131	0x3dae7614	0.08518615
132	0x3d291f47	0.041289594
133	0xbe26a181	-0.16272546
134	0x3da078c7	0.078355365
135	0x3e11166d	0.14168711
136	0xbdcd842e	-0.10034977
137	0x3c20302f	0.009777113
138	0xbe2e3d35	-0.17015536
139	0xbd8b4862	-0.06800915
140	0xbbdc8abb	-0.006730405
141	0x3cdd1aa0	0.026990235
142	0xbd88ec49	-0.06685693
143	0x3b48a224	0.0030614221
144	0x3bf1db2a	0.0073808627
145	0x3d8eaaae	0.06966148
146	0x3dfefe4c	0.12450847
147	0xbdd2ce2b	-0.1029323
148	0x3da98ba2	0.08278586
149	0xbe31d19a	-0.17365113
150	0xbdf077a6	-0.11741571
151	0xbdbc1749	-0.09184129
152	0xbe063309	-0.13105406
153	0x3da678a6	0.081284806
154	0x3d57b498	0.052662462
155	0xbc24d4f0	-0.010060534
156	0xbdaf788a	-0.08567913
157	0xbdb0cec3	-0.08633187
158	0x3e13b1ff	0.14423369
159	0x3d9c5bae	0.07634674
160	0x3d20898f	0.039193686
161	0xbb039842	-0.0020079766
162	0xbc72c35b	-0.014817084
163	0xbdaf9511	-0.08573354
164	0xbe256cd3	-0.16154794
165	0xbdb4157e	-0.08793162
166	0x3bb7adf9	0.005605456
167	0xbdd0fb93	-0.10204234
168	0xbe2e569c	-0.17025226
169	0xbe3cbae1	-0.18430664
170	0xbcd4bd5c	-0.0259692
171	0xbe0ed044	-0.13946635
172	0x3dea50c9	0.1144119
173	0x3db3161d	0.08744452
174	0x3da1d832	0.07902564
175	0xbd00d9ab	-0.031457584
176	0xbbac9b0d	-0.005267507
177	0xbd47560c	-0.048666045
178	0xbdf1b1a5	-0.11801461
179	0x3e2b8d62	0.16753152
180	0xbe040d48	-0.12895691
181	0xbe2a8364	-0.16651684
182	0x3c4eba7a	0.012617702
183	0xbba8178c	-0.00512976
184	0x3c28dd9d	0.010306743
185	0xbdc30f43	-0.09524395
186	0xbe0c8106	-0.13721094
187	0x3e0aeb2c	0.13566273
188	0xbe1ed6f9	-0.15511693
189	0xbdc23f54	-0.09484735
190	0x3da6dcbd	0.08147571
191	0x3bd104c2	0.006378741
192	0x3c363bdd	0.011122671
193	0x3d5a3d61	0.05328119
194	0xbdec6681	-0.115429886
195	0xbb38833b	-0.0028154391
196	0x3dd5d9d6	0.104419395
197	0xbd77551c	-0.0603839
198	0xbdb9f0f2	-0.0907916
199	0xbe104b40	-0.14091206
200	0xbe19eacb	-0.15030973
201	0x3d537487	0.0516248
202	0xbc92b1d6	-0.017907064
203	0x3d6e38a1	0.058159474
204	0x3e2d1d4a	0.16905704
205	0x3db508be	0.08839558
206	0x3dfa785d	0.12229989
207	0x3cf9070e	0.030398872
208	0xbe187544	-0.14888483
209	0xbdf93747	-0.121687464
210	0xbd1acd20	-0.03779328
211	0x3e26c573	0.16286258
212	0xbd8079ef	-0.06273257
213	0x3d584452	0.05279953
214	0xbe0a2e0b	-0.13494126
215	0xbe2bb7d8	-0.1676935
216	0xbd69c19e	-0.057069413
217	0xbe3647c8	-0.1780082
218	0xbe2d9db9	-0.16954698
219	0x3d86cc29	0.06581909
220	0xbd7c904a	-0.061661042
221	0x3e047d52	0.12938431
222	0x3e28459f	0.16432808
223	0xbe0805df	-0.1328349
224	0xbe0c66cc	-0.13711089
225	0xbda37f66	-0.07983284
226	0x3e2bcc00	0.16777039
227	0x3cb09c80	0.021559
228	0x3d855501	0.06510354
229	0xbd19db68	-0.037562758
230	0xbddb95d0	-0.10721934
231	0x3e047b33	0.12937622
232	0xbcb40246	-0.02197374
233	0x3d353b45	0.044245977
234	0x3c36e270	0.011162385
235	0xbe16c10a	-0.14722076
236	0x3de4e303	0.111761115
237	0xbdd449c9	-0.10365636
238	0x3c52ff94	0.012878317
239	0x3c17e654	0.009271223
240	0x3dd09d1d	0.10186217
241	0x3e1d78e0	0.15378141
242	0xbe19916d	-0.14996882
243	0xbd1ac7e4	-0.037788287
244	0xbdb2eecb	-0.087369524
245	0x3de9941a	0.11405201
246	0x3e3132b8	0.17304504
247	0xbcce747e	-0.025202032
248	0xbe268aae	-0.1626384
249	0x3e00092d	0.125035
250	0xbccbe6f8	-0.024890408
251	0x3d88f97b	0.066882096
252	0x3c117c3a	0.008879716
253	0x3d9feff7	0.078094415
254	0x3e1a7255	0.15082677
255	0xbe04caa2	-0.12967923

sequential/dense_3/MatMul f4 [2, 64]
0	0x3e6f9ccf	0.23399661
1	0xbe0429d4	-0.12906581
2	0x3e422a83	0.1896153
3	0x3e90e4ce	0.28299564
4	0xbe3cb459	-0.18428172
5	0x3e3f096f	0.18655942
6	0x3e9748c7	0.29547712
7	0x3eba3fe9	0.36376885
8	0xbe0104ea	-0.12599531
9	0x3ec8f81d	0.39251795
10	0xbedaa73e	-0.4270572
11	0xbda51d4f	-0.08062231
12	0x3e0cc244	0.13745981
13	0x3e074a01	0.13211824
14	0xbeb90bce	-0.3614182
15	0xbe45f710	-0.19332528
16	0x3e9d5841	0.30731395
17	0xbedb14de	-0.42789358
18	0x3e563507	0.20918666
19	0x3e883156	0.2660014
20	0xbeb05c79	-0.3444555
21	0xbe12070c	-0.142605
22	0xbeab014e	-0.33399433
23	0xbd008c41	-0.031383757
24	0x3e3ad386	0.18244752
25	0x3e8c31e5	0.27381817
26	0x3eee39ed	0.4652857
27	0x3e8f27fe	0.279602
28	0x3d8b8d16	0.068140194
29	0x3e5fdfef	0.21862768
30	0x3dfd388f	0.12364303
31	0xbe89b52d	-0.2689604
32	0xbe6e7d32	-0.23289946
33	0xbd9cec9e	-0.07662319
34	0xbce8ed4e	-0.028433468
35	0x3d3fb446	0.04680278
36	0xbd9ae2c1	-0.07562781
37	0x3ebc4dea	0.36778194
38	0xbe83ab72	-0.2571674
39	0x3e23c547	0.15993224
40	0x3ecc7f15	0.39940706
41	0xbe53ff44	-0.20702845
42	0xbcb756c5	-0.022380242
43	0x3c898166	0.016785335
44	0xbed632a7	-0.4183552
45	0xbbc68c2d	-0.0060591907
46	0xbdc831fa	-0.09775157
47	0xbe11f5bb	-0.14253895
48	0x3e62d392	0.2215102
49	0xbea48310	-0.32131243
50	0x3bf52960	0.007481739
51	0x3edc40ba	0.43018132
52	0xbeee4775	-0.46538892
53	0x3e9ae2e0	0.30251217
54	0xbe794a96	-0.24344859
55	0x3ed30105	0.41211715
56	0xbeb4bb00	-0.3529892
57	0x3e431d17	0.19054066
58	0x3e3274c5	0.17427357
59	0x3c3115d3	0.010808426
60	0xbe3abbfe	-0.18235776
61	0x3e9f5383	0.31118402
62	0x3e80907c	0.25110233
63	0x3ddc3e24	0.1075404
64	0x3d84d8cc	0.06486663
65	0x3d70affd	0.058761586
66	0xbe908bd6	-0.28231686
67	0xbec03360	-0.37539196
68	0x3edb0eb1	0.42784646
69	0xbe9a78f2	-0.301704
70	0xbde3b68b	-0.11118802
71	0x3d9730dc	0.07382366
72	0x3e948e84	0.2901498
73	0xbe8b9411	-0.27261403
74	0x3dced629	0.100994416
75	0x3e926e17	0.28599617
76	0x3ed7e2c9	0.4216521
77	0xbe2493d7	-0.16072021
78	0x3e95197c	0.29121006
79	0x3e95b9c3	0.29243287
80	0xbdae2a67	-0.08504181
81	0x3ed21be3	0.410369
82	0xbd60c5fe	-0.05487632
83	0xbe673dbd	-0.22582145
84	0x3eb18444	0.34671223
85	0x3d9121d3	0.070865296
86	0x3e7b9656	0.24569067
87	0x3eb94c20	0.3619089
88	0xbe7b7759	-0.24557246
89	0xbe3d3646	-0.18477735
90	0xbdfef017	-0.12448137
91	0xbeaa27eb	-0.3323358
92	0x3d9784d4	0.07398382
93	0xbd8863d1	-0.066596635
94	0xbe6e51ca	-0.23273388
95	0x3ed38636	0.41313332
96	0x3eda2b59	0.42611197
97	0x3ea90354	0.33010352
98	0x3e9b4186	0.30323428
99	0xbef678ef	-0.4813914
100	0x3eb0f5bc	0.3456248
101	0xbec8ab7d	-0.39193335
102	0x3d72ae7f	0.059248444
103	0xbe48af60	-0.1959815
104	0xbe64b39e	-0.22334144
105	0x3e945a81	0.289753
106	0x3e43fbf4	0.19139081
107	0x3e3485fe	0.17629239
108	0x3eb4a793	0.352841
109	0x3ec2caa2	0.38045222
110	0xbdcb1886	-0.09916787
111	0x3ead40c2	0.3383847
112	0xbecb7742	-0.39739424
113	0x3d747780	0.059684277
114	0x3bacb5a0	0.005270675
115	0x3d85fa01	0.06541825
116	0x3d5233c5	0.051318903
117	0xbed5eff6	-0.41784638
118	0x3d450e75	0.04810949
119	0xbebbcdd1	-0.36680463
120	0x3e81e3c4	0.25369084
121	0xbd4387f3	-0.047737073
122	0xbd23bada	-0.039973117
123	0xbece3570	-0.40275145
124	0x3ea8e013	0.32983455
125	0xbe14b005	-0.14520271
126	0xbe30f59c	-0.17281193
127	0xbeba5ec6	-0.3640043
