Notebooks/dev_model.tflite (tflite, 300296 bytes, 8 tensors)

sequential/dense/BiasAdd/ReadVariableOp/resource f4 [256]
0	0xbae347c6	-0.0017340116
1	0xbb8f4f51	-0.004373469
2	0x00000000	0.0
3	0x00000000	0.0
4	0xbc26778c	-0.010160338
5	0x3d1fc881	0.039009575
6	0x00000000	0.0
7	0xbc0581a7	-0.008148587
8	0xbc066f0a	-0.008205185
9	0x3a8ac525	0.0010587318
10	0xba3a7fb5	-0.0007114367
11	0x00000000	0.0
12	0x3a83f87f	0.0010068564
13	0x3be96ecf	0.007123805
14	0x00000000	0.0
15	0x00000000	0.0
16	0x00000000	0.0
17	0x3c575194	0.013142008
18	0xbc825fd3	-0.015914833
19	0x3b539728	0.003228614
20	0xba8db9b1	-0.0010812787
21	0xb91cfd98	-0.0001497179
22	0x3c11a020	0.008888274
23	0x00000000	0.0
24	0x00000000	0.0
25	0x00000000	0.0
26	0x00000000	0.0
27	0x00000000	0.0
28	0x00000000	0.0
29	0xbb88ecd3	-0.0041786223
30	0x3a810dce	0.0009846033
31	0x00000000	0.0
32	0x00000000	0.0
33	0x00000000	0.0
34	0xb9bf45e8	-0.00036482443
35	0x00000000	0.0
36	0x00000000	0.0
37	0x00000000	0.0
38	0x3aa1c1e8	0.0012341114
39	0x00000000	0.0
40	0xbb0f6ee6	-0.002188617
41	0xbb96f5e7	-0.0046069506
42	0x3c59e6fc	0.0132997
43	0x00000000	0.0
44	0x38e1c4ae	0.000107654705
45	0x3cccd6e3	0.02500481
46	0x00000000	0.0
47	0xbb981667	-0.0046413424
48	0x00000000	0.0
49	0x3bab3142	0.005224378
50	0x00000000	0.0
51	0x00000000	0.0
52	0xbc61be0b	-0.01377822
53	0xb9b5ce69	-0.00034676798
54	0x00000000	0.0
55	0x00000000	0.0
56	0xbb9739d5	-0.0046150484
57	0xbb9286a3	-0.0044716164
58	0x00000000	0.0
59	0x00000000	0.0
60	0x3ad1780f	0.0015981215
61	0x3ae64220	0.0017567314
62	0xbb9ec4a3	-0.0048452183
63	0xbc22ad87	-0.009929067
64	0xbb5ff1ee	-0.00341713
65	0xbb124ea2	-0.00223247
66	0x3b5280df	0.003212027
67	0xbc1a79cb	-0.009428452
68	0x00000000	0.0
69	0x00000000	0.0
70	0x3c4034c5	0.011731331
71	0x00000000	0.0
72	0xb9df7634	-0.00042621943
73	0x00000000	0.0
74	0x3b9d6e5a	0.0048044147
75	0xb9f5c95d	-0.0004688007
76	0x00000000	0.0
77	0xba3553de	-0.0006917099
78	0xbaac3be9	-0.0013140413
79	0x3b4c3b11	0.0031163136
80	0x00000000	0.0
81	0x3cc427d0	0.023944765
82	0x00000000	0.0
83	0x00000000	0.0
84	0xba41111b	-0.00073649146
85	0x00000000	0.0
86	0x00000000	0.0
87	0x00000000	0.0
88	0x00000000	0.0
89	0x3cbcf854	0.02306763
90	0xbb4935e6	-0.0030702292
91	0x3a84d18f	0.0010133254
92	0x00000000	0.0
93	0xba7c0421	-0.00096136524
94	0x3b8ff33a	0.0043930085
95	0x00000000	0.0
96	0xbb9053c6	-0.004404518
97	0xbb8440c3	-0.0040360405
98	0x397137e1	0.00023004368
99	0x00000000	0.0
100	0xbbf198fd	-0.007372974
101	0x00000000	0.0
102	0xbc647306	-0.013943439
103	0xb91f926a	-0.00015217965
104	0x00000000	0.0
105	0xbbb351b7	-0.0054723877
106	0x00000000	0.0
107	0x00000000	0.0
108	0xb9b74ee0	-0.00034963246
109	0xbbd727e0	-0.006566033
110	0x00000000	0.0
111	0x00000000	0.0
112	0x00000000	0.0
113	0x00000000	0.0
114	0xbbeceefe	-0.0072306385
115	0x00000000	0.0
116	0xbc0e17e2	-0.008672686
117	0x00000000	0.0
118	0x3a8d5f82	0.001078591
119	0x39f82df6	0.0004733649
120	0xb9d7068f	-0.00041012882
121	0x00000000	0.0
122	0x00000000	0.0
123	0xbc226d3d	-0.00991374
124	0x00000000	0.0
125	0xbbf9dc46	-0.0076251356
126	0x00000000	0.0
127	0x00000000	0.0
128	0x00000000	0.0
129	0x00000000	0.0
130	0xbc199d60	-0.0093759
131	0xbb5a0229	-0.0033265448
132	0x00000000	0.0
133	0xb8a823cd	-8.017533e-05
134	0x00000000	0.0
135	0xbb69e8b9	-0.0035691692
136	0xbb08b63d	-0.0020860576
137	0x3bc175df	0.005903944
138	0xb9b21533	-0.000339666
139	0x3b1af83c	0.0023646494
140	0xbb96b98a	-0.0045997547
141	0xbbab865b	-0.0052345223
142	0x3b1ac760	0.0023617372
143	0x3bfbc966	0.0076839207
144	0xbbed79d0	-0.007247187
145	0x00000000	0.0
146	0xbb19aa99	-0.0023447631
147	0x00000000	0.0
148	0x00000000	0.0
149	0x00000000	0.0
150	0x00000000	0.0
151	0x00000000	0.0
152	0xbbb8c066	-0.00563817
153	0x00000000	0.0
154	0x00000000	0.0
155	0x00000000	0.0
156	0x00000000	0.0
157	0x3b4b0358	0.0030977335
158	0xbb0d41c6	-0.0021554097
159	0xbc027c6b	-0.007964234
160	0xbc00906a	-0.007846931
161	0xbc1f4aa8	-0.009722389
162	0x00000000	0.0
163	0x3d423694	0.04741533
164	0x00000000	0.0
165	0x00000000	0.0
166	0xbc37dc5d	-0.011221972
167	0xba43a504	-0.0007463249
168	0x00000000	0.0
169	0x00000000	0.0
170	0xbb8c2c23	-0.0042777224
171	0x00000000	0.0
172	0x3beb29aa	0.0071765976
173	0x00000000	0.0
174	0x3b4c66d0	0.003118921
175	0x00000000	0.0
176	0x3c20c0d3	0.009811598
177	0x3b10576e	0.0022024768
178	0x00000000	0.0
179	0x00000000	0.0
180	0x00000000	0.0
181	0x3c82f6d6	0.015986841
182	0x3c99fa7d	0.0187962
183	0x3b8f3de1	0.00437139
184	0x00000000	0.0
185	0x3b263e0d	0.0025366575
186	0x00000000	0.0
187	0x00000000	0.0
188	0xbb4e66ad	-0.0031494305
189	0xb9c1e463	-0.0003698199
190	0x00000000	0.0
191	0x00000000	0.0
192	0x00000000	0.0
193	0xbaec3728	-0.0018021809
194	0x00000000	0.0
195	0x00000000	0.0
196	0x3b1d1a9b	0.0023972157
197	0xbb952834	-0.0045519117
198	0x00000000	0.0
199	0x00000000	0.0
200	0x00000000	0.0
201	0x00000000	0.0
202	0x00000000	0.0
203	0x00000000	0.0
204	0x00000000	0.0
205	0x3c8d41c5	0.017243275
206	0x00000000	0.0
207	0x3b0eb61a	0.0021776021
208	0x3927405a	0.00015950334
209	0x00000000	0.0
210	0xbb332fa2	-0.0027341624
211	0x3c1d8ea0	0.009616524
212	0x3a0f45f8	0.0005465443
213	0xbbb2276d	-0.005436829
214	0x00000000	0.0
215	0x00000000	0.0
216	0x3ab054e1	0.001345303
217	0x00000000	0.0
218	0xbc24c514	-0.010056753
219	0x3c3ae6d6	0.011407575
220	0x00000000	0.0
221	0xbab3aab0	-0.0013707485
222	0xbbabda54	-0.0052445326
223	0x00000000	0.0
224	0xbb40f8d2	-0.0029445183
225	0x00000000	0.0
226	0x3ab540a6	0.0013828471
227	0xbb3ae7a1	-0.002851941
228	0xbc28c5f3	-0.010301101
229	0x3ba1924a	0.004930769
230	0xba890f4c	-0.0010456829
231	0xbb10e06e	-0.0022106427
232	0x00000000	0.0
233	0x3b8a8d51	0.004228272
234	0xbd717c7f	-0.05895662
235	0xba3f6b1f	-0.0007302034
236	0xbaf39d0c	-0.0018586232
237	0xb9f64dd2	-0.00046978757
238	0xbb91e8b5	-0.0044527897
239	0xba983074	-0.001161112
240	0xbb80004f	-0.003906287
241	0x38b7b50d	8.759843e-05
242	0x00000000	0.0
243	0xbb83c67a	-0.004021463
244	0x00000000	0.0
245	0xb9e27438	-0.0004319267
246	0x00000000	0.0
247	0x00000000	0.0
248	0x00000000	0.0
249	0x00000000	0.0
250	0x3b004add	0.0019575872
251	0xb9efbeda	-0.00045727828
252	0xba45cad6	-0.00075451785
253	0x3c3383fe	0.010956762
254	0x3ac2e903	0.0014870468
255	0x00000000	0.0

sequential/dense_1/BiasAdd/ReadVariableOp/resource f4 [128]
0	0x3a9a14ec	0.0011755503
1	0xbaff8bf3	-0.0019496664
2	0x00000000	0.0
3	0xba202f66	-0.00061105785
4	0xb7b23f05	-2.12486e-05
5	0xbb0462ca	-0.0020200484
6	0xbbd5c3fb	-0.006523607
7	0xbb976012	-0.004619607
8	0x3ba44028	0.005012531
9	0x00000000	0.0
10	0xbb466853	-0.0030274584
11	0xbbbf72d0	-0.005842544
12	0xbad66996	-0.0016358371
13	0xbbf9e5f2	-0.0076262886
14	0x00000000	0.0
15	0xbbddae98	-0.006765198
16	0x3a815af4	0.0009869025
17	0x00000000	0.0
18	0xbbc2f582	-0.005949677
19	0x00000000	0.0
20	0x3b9ebcb8	0.0048442744
21	0x00000000	0.0
22	0x00000000	0.0
23	0x3b803d81	0.003913582
24	0x38b74a44	8.739953e-05
25	0x00000000	0.0
26	0xbbb46f41	-0.0055064266
27	0xbb79ae97	-0.0038098448
28	0x00000000	0.0
29	0x3c510a91	0.012758867
30	0x00000000	0.0
31	0x3b9052ef	0.0044044177
32	0x00000000	0.0
33	0x00000000	0.0
34	0xbb0cc69a	-0.002148068
35	0x00000000	0.0
36	0x3b949aaf	0.0045350413
37	0x3a86a7cc	0.0010273396
38	0x00000000	0.0
39	0xbb7e05d2	-0.0038760793
40	0x00000000	0.0
41	0xbb4af630	-0.0030969493
42	0x3b9cf09c	0.004789425
43	0x3c0b974c	0.008519959
44	0x00000000	0.0
45	0xbb19de37	-0.0023478398
46	0x3a0b84cf	0.0005322219
47	0x00000000	0.0
48	0x00000000	0.0
49	0x3a8ada5a	0.0010593638
50	0x3a2b1743	0.00065265986
51	0x00000000	0.0
52	0x3b0ae153	0.0021191433
53	0x3adff4e7	0.0017086536
54	0xbbc497ab	-0.0059995255
55	0xba94a845	-0.0011341652
56	0xbc1873b8	-0.009304933
57	0x00000000	0.0
58	0x3b1ab6bb	0.002360745
59	0x00000000	0.0
60	0x3acec77e	0.0015776006
61	0x00000000	0.0
62	0x00000000	0.0
63	0xbb7e8b66	-0.0038840412
64	0x3b46971d	0.0030302473
65	0x00000000	0.0
66	0xbb9d6a3c	-0.004803924
67	0xba2632c9	-0.0006339965
68	0x00000000	0.0
69	0x00000000	0.0
70	0x00000000	0.0
71	0xbc274725	-0.010209833
72	0x00000000	0.0
73	0xbb42b84c	-0.00297119
74	0x00000000	0.0
75	0xbb846c91	-0.0040412624
76	0x3ba8e610	0.0051543787
77	0x3b4adf0d	0.0030955703
78	0x3b3c4998	0.0028730389
79	0x39cbdc12	0.00038883142
80	0x00000000	0.0
81	0x00000000	0.0
82	0xbbc40ec3	-0.005983205
83	0x3b569701	0.0032743814
84	0xbc3e5b62	-0.011618467
85	0x00000000	0.0
86	0xbba2bbd4	-0.0049662385
87	0x00000000	0.0
88	0x00000000	0.0
89	0x00000000	0.0
90	0x00000000	0.0
91	0x00000000	0.0
92	0x3aae08da	0.0013277784
93	0x3a9b1311	0.0011831244
94	0xb9659ea2	-0.00021898237
95	0x00000000	0.0
96	0xbbc1232e	-0.0058940863
97	0x3c1559bc	0.009115633
98	0xbbb9a43f	-0.0056653316
99	0x00000000	0.0
100	0xbb22b2b9	-0.0024825765
101	0xbb66eee4	-0.0035237605
102	0xbb0e7efe	-0.0021743174
103	0xb98d595f	-0.00026960202
104	0xbb94a399	-0.004536104
105	0x00000000	0.0
106	0xbba4bfcf	-0.005027748
107	0x3ab51bcd	0.0013817489
108	0x00000000	0.0
109	0x3b682755	0.0035423834
110	0xbc1215d8	-0.008916341
111	0xbba53c19	-0.0050425646
112	0x00000000	0.0
113	0x3a9d3a30	0.0011995491
114	0x00000000	0.0
115	0x00000000	0.0
116	0xbbacea3c	-0.0052769464
117	0x00000000	0.0
118	0x00000000	0.0
119	0xbc03dbc2	-0.008048
120	0x3a8cdcc2	0.0010746943
121	0xbc4737e3	-0.0121593205
122	0x3ba4cb08	0.005029086
123	0x00000000	0.0
124	0xba1a1167	-0.0005877227
125	0x3c37f7fa	0.011228556
126	0xbbfeaf11	-0.0077723344
127	0xbb7ad5d9	-0.0038274436

sequential/dense_2/BiasAdd/ReadVariableOp/resource f4 [64]
0	0xbbc4c736	-0.006005193
1	0xbc5b229e	-0.013374953
2	0x391b851f	0.00014831543
3	0x00000000	0.0
4	0x00000000	0.0
5	0x00000000	0.0
6	0xbb2b04cd	-0.002609539
7	0x3e057c5a	0.13035718
8	0x3aa88c59	0.001285921
9	0x00000000	0.0
10	0x3a27ec6e	0.0006405775
11	0xbc0bb4e1	-0.008527012
12	0x00000000	0.0
13	0x3d121c03	0.035671245
14	0xbc2d2889	-0.010568746
15	0x00000000	0.0
16	0x00000000	0.0
17	0xbabd2643	-0.0014430959
18	0x3ace79cd	0.0015752852
19	0x00000000	0.0
20	0x00000000	0.0
21	0x3c342104	0.0109942
22	0x3a1ca09a	0.0005974859
23	0xbbc48351	-0.0059970994
24	0xbabce56c	-0.0014411635
25	0x3aa32ef8	0.0012449911
26	0xbacc0383	-0.0015565011
27	0x00000000	0.0
28	0x00000000	0.0
29	0xbc623032	-0.013805436
30	0x00000000	0.0
31	0x3a815d5f	0.0009869746
32	0xbb74fdbb	-0.003738268
33	0xbabc2414	-0.0014354014
34	0x3a8e8631	0.0010873732
35	0x00000000	0.0
36	0xbc220d89	-0.009890922
37	0x3c687ea1	0.014190347
38	0xbbeaefa6	-0.0071696816
39	0x3ae5a220	0.001751963
40	0xbada0eb2	-0.001663646
41	0x3b4d6191	0.0031338672
42	0xbbeda7fb	-0.007252691
43	0xbacddbe2	-0.0015705789
44	0xbab61a85	-0.0013893401
45	0xbc3d4dd6	-0.011554202
46	0x3aa4768f	0.001254754
47	0xbbe0ccee	-0.006860367
48	0x00000000	0.0
49	0x3b2f8231	0.002678048
50	0x00000000	0.0
51	0x00000000	0.0
52	0x3b0bea84	0.00213495
53	0x3c14d7ac	0.009084623
54	0xbb2ebc90	-0.0026662685
55	0x00000000	0.0
56	0xbbaf2f05	-0.0053461813
57	0xbae720f6	-0.0017633724
58	0xbd0c7dee	-0.034299783
59	0xbb54a491	-0.0032446722
60	0xbb6353ea	-0.0034687468
61	0xbcad8835	-0.021183113
62	0x00000000	0.0
63	0x3ab267c7	0.001361125

sequential/dense_3/BiasAdd/ReadVariableOp/resource f4 [2]
0	0xbaaf36b2	-0.0013367741
1	0x3aaf367c	0.0013367678

sequential/dense/MatMul f4 [256, 129]
0	0x3bb419d9	0.0054962453
1	0x3d83943f	0.0642476
2	0x3b08b62f	0.0020860543
3	0xbc54bfc3	-0.012985173
4	0x3aa7370f	0.0012757498
5	0xbdd7ed72	-0.10543336
6	0xbd7093f9	-0.058734868
7	0x3c20c60d	0.009812844
8	0x3d1135cb	0.03545169
9	0xbd65d1c2	-0.056108244
10	0x3c0b590e	0.008505119
11	0x3a28a473	0.0006433196
12	0xbcd62a5d	-0.026143247
13	0x3deebecf	0.116574876
14	0x3d29aa16	0.041421972
15	0x3dfa6820	0.122268915
16	0xbd9dc481	-0.07703496
17	0x3dfe8ba5	0.12428979
18	0x3c763125	0.015026365
19	0xbc80c18a	-0.015717287
20	0x3d058206	0.032594703
21	0xbc9a9325	-0.018868992
22	0xbdc576bd	-0.09641788
23	0xbbc464a2	-0.0059934417
24	0x3d60154a	0.054707803
25	0xbd82329e	-0.06357311
26	0x3e025908	0.12729275
27	0xbd57ca2f	-0.05268305
28	0x3d175521	0.03694642
29	0xbdcdf912	-0.10057272
30	0xbd92b5fe	-0.071636185
31	0xbd7bd7c3	-0.061485063
32	0x3d8f205a	0.069885924
33	0x39c5665e	0.00037651038
34	0x3de1c63f	0.110241406
35	0xbca3fbe0	-0.020017564
36	0x3d1fdbfa	0.039028145
37	0xbd50233e	-0.05081486
38	0x3d456133	0.0481884
39	0x3b5c68ad	0.0033631728
40	0xbbea7796	-0.007155369
41	0xbcb0b498	-0.021570489
42	0x3d243353	0.04008801
43	0xbd10aafd	-0.035319317
44	0x3da44d53	0.08022561
45	0x3df8b5aa	0.12144025
46	0x3d57c103	0.052674305
47	0x3d5dc462	0.054142363
48	0xbc5de60a	-0.013543615
49	0xbd9044c6	-0.070443675
50	0x3c5539b3	0.013014245
51	0xbd5cb634	-0.0538847
52	0x3df16c7f	0.11788272
53	0xbdb4a901	-0.088212974
54	0x3df7051e	0.12061523
55	0x3ca9f6a4	0.02074749
56	0x3d896363	0.0670841
57	0x3d8c4312	0.0684873
58	0xbd1b4d55	-0.037915546
59	0xbda8abf5	-0.08235923
60	0xbd4267e9	-0.047462378
61	0x3db7ba12	0.08971037
62	0x3d76fc64	0.060299292
63	0xbb75ac22	-0.0037486632
64	0xbdd0e38c	-0.10199651
65	0x3dd8479c	0.105605334
66	0xbdd34ed1	-0.103177674
67	0xbe02a982	-0.12759975
68	0xbc332633	-0.0109344
69	0x3df2d4de	0.118570074
70	0xbd799789	-0.06093553
71	0x3c82bc32	0.01595888
72	0xbdf72cd7	-0.120690994
73	0xbce8d806	-0.02842332
74	0xbde2b82b	-0.110702835
75	0x3d8ba1ba	0.06817956
76	0x3d4a5ac1	0.049402956
77	0x3c1e5f41	0.009666265
78	0x3d8c71a8	0.06857616
79	0xbdb24287	-0.08704095
80	0xbd12f5c2	-0.035878904
81	0xbd673375	-0.056445558
82	0x3d6143f7	0.054996457
83	0xbdd19460	-0.102333784
84	0x3df2b6cb	0.11851271
85	0xbde385a4	-0.11109474
86	0xb9bc493a	-0.00035912712
87	0xbde8354d	-0.11338291
88	0xbdc33145	-0.09530882
89	0xbdca3122	-0.098726526
90	0xbafb3181	-0.0019164534
91	0xbdb59e6a	-0.08868106
92	0xbe00b4ca	-0.12568966
93	0x3d84d3e0	0.064857244
94	0xbd0b0cbe	-0.0339477
95	0x3dc533ed	0.09629045
96	0xbd0c1e71	-0.03420872
97	0x3c8d28c0	0.017231345
98	0xbc0b36fa	-0.008496994
99	0x3b16adef	0.0022991856
100	0xbd4b6c0e	-0.049663596
101	0xbde3de60	-0.11126399
102	0x3da392ff	0.07987022
103	0xbceec85b	-0.029148271
104	0xbd777e42	-0.060423143
105	0x3dcef69c	0.10105631
106	0xbd91243e	-0.07086991
107	0xbddfb62f	-0.10923421
108	0xbd9b455b	-0.07581588
109	0xbd535de1	-0.0516032
110	0x39b4a65e	0.0003445623
111	0x3d76bb19	0.060237024
112	0x3d69d155	0.0570844
113	0xbde2c377	-0.11072438
114	0x3d617dda	0.055051662
115	0xbdabfdcc	-0.08398017
116	0x3d3ee95e	0.046609275
117	0x3ac25fed	0.0014829614
118	0x3bc4facd	0.006011343
119	0xbd962d0f	-0.07332813
120	0xbd27eb78	-0.040996045
121	0xbcdbfff0	-0.026855439
122	0xbd489bdf	-0.048976775
123	0xbd7fd05c	-0.062454566
124	0x3da88acc	0.082295984
125	0x3dcd744d	0.10031948
126	0xbda5d1de	-0.080966696
127	0x3db38aef	0.08766734
128	0x3da36bfe	0.07979582
129	0x3dd4334c	0.103613466
130	0xbcd72a3d	-0.026265258
131	0xbcc74bc8	-0.024328128
132	0x3d365451	0.044514004
133	0xbc9f80f9	-0.019470679
134	0xbd81358b	-0.06309041
135	0x3cf768bb	0.030201307
136	0x3d93fdf2	0.072261706
137	0xbdd78a61	-0.105244406
138	0xbcad43d0	-0.0211505
139	0xbdc24c5e	-0.09487222
140	0x3d3ddf7f	0.04635572
141	0x3d852724	0.06501606
142	0xbd37f285	-0.04490902
143	0x3b192758	0.0023369398
144	0x3c9a6250	0.018845707
145	0x3dbfff0b	0.093748175
146	0xbdddd415	-0.10831467
147	0x3db8f6f2	0.09031476
148	0xbdea3291	-0.11435426
149	0x3bcf0d23	0.0063187047
150	0xbdce0da0	-0.100611925
151	0xbdd0f6ea	-0.10203345
152	0x3d28c2fb	0.041201573
153	0x3d2b4c47	0.04182079
154	0xbd1e4709	-0.038641963
155	0x3cd1aa48	0.025593892
156	0xbd88818f	-0.06665336
157	0x3d8fd8d7	0.07023781
158	0x3d25cbfc	0.040477738
159	0x3cff62ee	0.031175103
160	0x3d8c43bf	0.06848859
161	0xbdd06ef1	-0.101774104
162	0xbd79359b	-0.060842138
163	0xbd238a38	-0.039926738
164	0x3db2e55f	0.08735155
165	0xbd506bd5	-0.050884087
166	0x3d9f089e	0.077653155
167	0xbdc1d615	-0.09464661
168	0xbbdb953e	-0.0067011407
169	0x3d6d3324	0.0579101
170	0x3ce9afd5	0.028526226
171	0xbb988935	-0.004655028
172	0xbcdc5448	-0.026895657
173	0x3d80c07b	0.06286713
174	0xbd854edb	-0.06509181
175	0x3cdb3c4f	0.026762156
176	0x3d659d33	0.05605812
177	0xbda69471	-0.08133782
178	0x3c7941e3	0.0152134625
179	0x3afdaa4c	0.0019353121
180	0x3dd4399a	0.10362549
181	0x3d83ea12	0.0644113
182	0xbd84b425	-0.06479672
183	0x3d49f787	0.049308326
184	0x3b2f4be7	0.0026748122
185	0x3d508289	0.050905738
186	0x3d61d282	0.055132397
187	0x3cd98c0c	0.026556037
188	0x3d178b63	0.036998164
189	0xbcc382ff	-0.023866175
190	0xbddd98b7	-0.10820144
191	0x3da517df	0.08061194
192	0xbdeab68e	-0.11460601
193	0x3cf9c825	0.030490944
194	0xbdae3298	-0.08505744
195	0xbd12ed76	-0.03587099
196	0xbde288c4	-0.11061242
197	0xbc830c9d	-0.015997225
198	0xbdb85dd5	-0.09002272
199	0xbdd1e870	-0.10249412
200	0x3cd4ea8d	0.025990749
201	0xbd8b7b29	-0.068106
202	0xbd50e6d5	-0.05100139
203	0xbde482ff	-0.11157798
204	0x3d96dd83	0.07366469
205	0xbdb74a78	-0.08949751
206	0xbe04867d	-0.12941928
207	0xbe0145a6	-0.12624225
208	0x3df657c4	0.12028459
209	0x3df8e31a	0.12152691
210	0x3da7979d	0.08183215
211	0x3d56f884	0.052483097
212	0xbdbe3ecc	-0.09289321
213	0xbd636870	-0.05551952
214	0x3cdc56a3	0.02689678
215	0xbdcb02da	-0.09912653
216	0x3d6895b7	0.056783404
217	0xbd85eaf3	-0.06538954
218	0x3df2a697	0.11848181
219	0x3d722534	0.05911751
220	0xbdf0b278	-0.1175279
221	0xbcce1975	-0.025158623
222	0x3d9e5fec	0.077331394
223	0x3cc2874f	0.02374616
224	0xbe0102e3	-0.12598757
225	0x3dd862d1	0.10565723
226	0xbd98788f	-0.0744487
227	0xbd84e28e	-0.064885244
228	0x3d91b023	0.071136735
229	0xbd8aa8e5	-0.06770495
230	0x3d281e49	0.041044507
231	0x3deafc70	0.1147393
232	0xbd8ce273	-0.06879129
233	0xbdb2357c	-0.087016076
234	0x39c559ce	0.00037641678
235	0x3d0b1bd1	0.033962075
236	0xbd1812f6	-0.037127458
237	0x3d6c0e18	0.05763063
238	0x3dd9e5e4	0.10639551
239	0x3cb9b09d	0.022667224
240	0x3cacec35	0.021108726
241	0xbdc2f80c	-0.095199674
242	0x3aee2949	0.0018170263
243	0xbd18a5de	-0.03726756
244	0xbd1121bd	-0.035432566
245	0x3de1cc91	0.11025346
246	0xbd46f949	-0.04857758
247	0xbd8c75a0	-0.06858373
248	0xbda54c18	-0.08071154
249	0x3cbf7d98	0.023375317
250	0x3d3b8393	0.045779776
251	0x391f0315	0.0001516457
252	0x3d3eee20	0.046613812
253	0xbd8657d0	-0.06559718
254	0x3d43bc81	0.047787193
255	0xbd90f889	-0.07078654

sequential/dense_1/MatMul f4 [128, 256]
0	0xbdc73d36	-0.09728472
1	0x3c09e469	0.008416274
2	0xbd103430	-0.03520602
3	0xbdd8e8b4	-0.105912596
4	0x3b9ba3cb	0.0047497503
5	0x3da2e2cb	0.079534136
6	0x3d436408	0.04770282
7	0xbca6b272	-0.020348761
8	0x3d224790	0.03961903
9	0xbcb57f93	-0.022155559
10	0xbdab4374	-0.08362475
11	0x3d1a17d8	0.037620395
12	0xbddf271d	-0.10896132
13	0x3de3c84c	0.11122188
14	0x3df61244	0.12015203
15	0x3d9d10d4	0.07669225
16	0x3d92cd50	0.071680665
17	0x3d6a4e7d	0.05720376
18	0xbce5b363	-0.02803964
19	0x3db2efe1	0.087371595
20	0xbcd6f783	-0.02624107
21	0xbb3086dc	-0.0026935851
22	0xbd0b6ff0	-0.0340423
23	0xbdf6ff78	-0.120604455
24	0xbd8437cc	-0.06455955
25	0x3dda1aa0	0.106496096
26	0x3cf17600	0.029475212
27	0xbcaf0110	-0.021362811
28	0xbca9d900	-0.020733356
29	0xbd0ab56c	-0.033864424
30	0x3d8e963b	0.06962248
31	0xbd08ddb8	-0.033414572
32	0x3d9cf124	0.076631814
33	0x3d337a60	0.043817878
34	0xbdc2856f	-0.09498107
35	0xbd35d9c8	-0.044397146
36	0x3d0c8140	0.03430295
37	0x3da319c8	0.07963902
38	0xbd385b3f	-0.045008894
39	0x3db612e0	0.08890319
40	0xbde560c5	-0.11200098
41	0x3d4b68df	0.04966056
42	0x3d60d111	0.05488688
43	0xbd0cbbe0	-0.03435886
44	0xbdb4896d	-0.088152744
45	0x3c89209d	0.016739184
46	0x3db10c84	0.08644965
47	0x3d7b53a1	0.06135905
48	0xbd8fed7c	-0.070277184
49	0x3d98ecbc	0.074670285
50	0xbcdc12c0	-0.02686441
51	0xbddf6398	-0.10907668
52	0x3bfccab9	0.007714596
53	0x3e09e364	0.13465649
54	0x3da62400	0.08112335
55	0x3c17bbe0	0.0092611015
56	0xbdab7098	-0.08371085
57	0xbda39ccf	-0.07988893
58	0x3d12c718	0.0358344
59	0xbdc4a99c	-0.09602663
60	0xbcb9b657	-0.022669954
61	0xbd9308df	-0.071794264
62	0xbd31a6ad	-0.043371845
63	0xbd82fb83	-0.06395628
64	0x3cb5749f	0.022150336
65	0xbd7bf09d	-0.061508764
66	0x3dc602ff	0.0966854
67	0x3c1ae53d	0.009454069
68	0xbde04ff0	-0.10952747
69	0x3d20c008	0.039245635
70	0x3da64a1d	0.08119605
71	0x3d2283e8	0.039676577
72	0xbd4e99cd	-0.050439645
73	0xbd49f910	-0.04930979
74	0x3e008b2a	0.12553087
75	0xbd2480c8	-0.040161878
76	0xbcb5a1f0	-0.022171944
77	0x3db44c24	0.08803585
78	0xbd04ad06	-0.03239157
79	0xbcbb6f10	-0.022880107
80	0x3d337848	0.04381588
81	0x3da2a73d	0.079420544
82	0xbd714a28	-0.05890861
83	0x3d693400	0.056934357
84	0xbcf89b8c	-0.030347608
85	0xbd016558	-0.03159079
86	0xbdd595ac	-0.10428938
87	0xbcc91b60	-0.024549186
88	0x3d94f374	0.072729975
89	0xbd46ac84	-0.048504367
90	0x3dff781a	0.124740794
91	0xbccb41d4	-0.024811663
92	0xbd311a20	-0.043237805
93	0x3dd2fa12	0.103016034
94	0xbae3e52a	-0.0017387022
95	0x3d0e5240	0.03474641
96	0x3dd74ef5	0.10513107
97	0x3de62d5b	0.112391196
98	0xbbefda40	-0.0073197186
99	0xbcf11f40	-0.029433846
100	0xbd859e78	-0.06524366
101	0x3df9b658	0.121929824
102	0x3d1d9ea5	0.038481373
103	0xbd610142	-0.05493284
104	0xbd510c50	-0.051037133
105	0xbdbd9ef3	-0.09258833
106	0xbdae7e04	-0.08520129
107	0xbd8bd36c	-0.06827435
108	0x3defc383	0.11707213
109	0x3c40551b	0.011739041
110	0xbde4a9d8	-0.111652076
111	0x3daab3b4	0.08335057
112	0x3deadc10	0.11467755
113	0xbdcf14ac	-0.10111365
114	0x3dcd5b26	0.10027151
115	0x3baca400	0.0052685738
116	0xbda1f5b9	-0.07908196
117	0xbda363d0	-0.07978022
118	0x3d9da4b5	0.07697431
119	0xbcff7884	-0.031185396
120	0x3d9ed67e	0.07755755
121	0xbdcd6c04	-0.10030368
122	0xbcc3abc0	-0.023885608
123	0xbdd05417	-0.10172289
124	0xbc479880	-0.012182355
125	0xbd1b6fa4	-0.037948266
126	0x3d0efcd8	0.0349091
127	0xbdbef898	-0.09324759
128	0x3c3fec80	0.011714101
129	0xbd1d64b8	-0.03842613
130	0xbcaa0d08	-0.020758167
131	0x3e06e923	0.13174872
132	0x3c9e8790	0.01935175
133	0xbb8d792d	-0.004317424
134	0x3c0e1380	0.008671641
135	0x3df69790	0.12040627
136	0x3dd0bd59	0.10192365
137	0x3d9eb014	0.07748428
138	0x3d21e8c2	0.039528616
139	0xbc79b13f	-0.015240013
140	0x3dead3a4	0.114661485
141	0x3bef909f	0.0073109413
142	0xbdb609d3	-0.088885926
143	0x3d7da102	0.061921127
144	0x3c9d2672	0.019183371
145	0xbdbae27c	-0.0912523
146	0xbd972b7d	-0.073813416
147	0xbcbc8d30	-0.023016542
148	0x3d9cd3d8	0.076575935
149	0x3d02d580	0.03194189
150	0xbd08ca60	-0.033396125
151	0xbd689ab8	-0.056788176
152	0x3d985d15	0.07439629
153	0xbdceb748	-0.10093552
154	0x3dcfcf90	0.10147011
155	0xbdf74278	-0.12073225
156	0xbcfd8ef0	-0.030951947
157	0xbde3bcbf	-0.11119985
158	0x3cdfa3af	0.02729973
159	0xbcd4cd81	-0.025976898
160	0x3d39f35c	0.0453981
161	0x3d2a8f79	0.041640732
162	0x3c5230a0	0.012828976
163	0xbe0bd5c1	-0.1365576
164	0xbdd096e0	-0.10185027
165	0x3dc23678	0.09483045
166	0x3d95cdf8	0.07314676
167	0xbdffe034	-0.12493935
168	0x3d90d59c	0.07071993
169	0xbdd5ebe8	-0.10445386
170	0xbd29ac72	-0.041424222
171	0x3d4936d0	0.04912454
172	0x3d0c019d	0.034181226
173	0xbd548fa0	-0.051894784
174	0xbd8f14ac	-0.06986365
175	0x3d04d968	0.032433897
176	0x3c90307c	0.017601244
177	0xbdd5c503	-0.10437968
178	0xbcbb51b0	-0.0228661
179	0x3df63868	0.120224774
180	0x3de926f0	0.1138438
181	0x3ddc3b93	0.107535504
182	0x3e15e36c	0.14637536
183	0xbdaed242	-0.08536197
184	0xbcab7210	-0.020928413
185	0x3d348f6c	0.04408209
186	0xbd431fc0	-0.0476377
187	0xbd9479d8	-0.07249802
188	0xbddb1869	-0.10698015
189	0x394eadc2	0.00019710421
190	0xbd12ea60	-0.03586805
191	0x3d16ab98	0.03678474
192	0xbcb5da00	-0.022198677
193	0xbd1198f1	-0.035546247
194	0x3d8a8388	0.06763369
195	0x3d53dcb8	0.051724166
196	0xbdbb0b69	-0.09133036
197	0x3d07c7fd	0.033149708
198	0x3df39404	0.11893466
199	0xbd853778	-0.065047204
200	0x3d34b4d8	0.04411778
201	0xbd5351c0	-0.051591635
202	0xbc786920	-0.0151617825
203	0x3ceca620	0.028887808
204	0x3d518b48	0.05115822
205	0x3e1d3029	0.15350403
206	0xbdaf0638	-0.08546108
207	0xbdcc5367	-0.09976845
208	0xbdc3c52c	-0.09559092
209	0x3d146920	0.036233068
210	0xbba0de21	-0.0049092923
211	0xbd509c74	-0.050930455
212	0x3db557e0	0.088546515
213	0xbd75cdd4	-0.060010746
214	0x3df2d430	0.11856878
215	0x3dc50738	0.096205175
216	0x3df8d009	0.121490546
217	0x3d0f3910	0.03496653
218	0xbd6ffa56	-0.05858835
219	0x3daf4170	0.08557403
220	0xbde02188	-0.109438956
221	0x3d8d25da	0.06891985
222	0x3dadd5a5	0.08488015
223	0x3b9e7e00	0.0048367977
224	0xbd6d2424	-0.057895795
225	0x3d7e96e8	0.062155634
226	0xbd7eef62	-0.062240012
227	0x3c9b797a	0.018978823
228	0xbd887868	-0.06663591
229	0xbd74f7b5	-0.059806544
230	0xbd8ba73b	-0.06819006
231	0x3db9ba55	0.09068743
232	0x3dc6f9fc	0.097156495
233	0xbbffd4d4	-0.0078073535
234	0x3e2b915c	0.16754669
235	0x3c2bb632	0.0104804505
236	0xbdb67b15	-0.08910195
237	0xbc092ca6	-0.008372461
238	0xbd42b190	-0.047532618
239	0x3d6a5a82	0.05721522
240	0xbdd006e6	-0.10157566
241	0x3d015e1c	0.03158389
242	0xbd699538	-0.05702707
243	0x3d98fecc	0.07470474
244	0xbd9771e8	-0.07394773
245	0xb89a5ef4	-7.3609786e-05
246	0xbdf27d3c	-0.11840293
247	0x3d7cb228	0.06169334
248	0xbb2ded00	-0.0026538968
249	0x3b638e00	0.003472209
250	0x3c0c2a6c	0.008555036
251	0xbd9646db	-0.07337733
252	0xbceb4f8a	-0.02872445
253	0x3e10eac2	0.14152053
254	0x3c59e6fc	0.0132997
255	0xbde068f0	-0.10957515

sequential/dense_2/MatMul f4 [64, 128]
0	0x3dff5603	0.12467577
1	0xbb4e3687	-0.0031465606
2	0x3e1f86b3	0.15578727
3	0x3e1fe2b8	0.1561383
4	0xbe1a18ea	-0.15048566
5	0x3dd641ef	0.104617946
6	0xbd12ac70	-0.03580898
7	0x3dfec75c	0.124403685
8	0xbd20f963	-0.039300334
9	0x3d47a384	0.048739925
10	0x3d8858dc	0.066575736
11	0x3e2baf50	0.16766095
12	0xbe0beeb4	-0.13665277
13	0xbca0be6a	-0.019622047
14	0x3cb99420	0.02265364
15	0xbc8a5cb5	-0.01688991
16	0x3d67800d	0.056518603
17	0xbd928321	-0.07153917
18	0x3cd5ede6	0.026114415
19	0xbca3b4f8	-0.019983754
20	0x3e0c679c	0.13711399
21	0x3cc85a40	0.024457097
22	0x3e2949d5	0.16532071
23	0x3d2cf319	0.042224023
24	0xbe251979	-0.16122998
25	0xbd9f6716	-0.07783334
26	0xbe20e7b3	-0.15713386
27	0xbdcf91b4	-0.101352125
28	0x3dd81e3a	0.1055264
29	0x3dcee672	0.10102548
30	0x3dae4daa	0.08510907
31	0x3dd0cae1	0.10194946
32	0x3cdbf7b0	0.026851505
33	0xbdf76e9a	-0.120816424
34	0xbdbeb90b	-0.09312638
35	0xbe0f173a	-0.13973704
36	0xbe0df77d	-0.1386394
37	0x3cbc51fc	0.022988312
38	0xbcccc068	-0.02499409
39	0xbe2f3102	-0.17108539
40	0x3e0de3f9	0.13856496
41	0x3dc3186f	0.09526145
42	0xbd515ee3	-0.05111588
43	0x3c7acdd4	0.015307862
44	0xbe151156	-0.14557394
45	0xbd8dafa9	-0.0691827
46	0x3d3dbc2d	0.046322037
47	0x3e247143	0.16058831
48	0xbcfbfb98	-0.030759618
49	0xbd00cc25	-0.031444687
50	0x3dc8be4e	0.09801923
51	0xbdba265b	-0.09089347
52	0xbe221c81	-0.15831186
53	0x3e0a0d8e	0.13481733
54	0x3dcd3f19	0.100218005
55	0x3e0f1e14	0.13976318
56	0x3dbdaeb1	0.09261835
57	0xbdb8ee20	-0.09029794
58	0xbdf479a9	-0.11937267
59	0x3dcba406	0.09943394
60	0xbd24fd21	-0.040280465
61	0xbadfdd80	-0.0017079562
62	0xbe328eb5	-0.17437251
63	0xbdb77fe9	-0.08959944
64	0x3e04385d	0.12912126
65	0xbdab47c2	-0.08363296
66	0xbcec1f24	-0.028823443
67	0x3d1f8979	0.038949464
68	0xbd8471e1	-0.06467033
69	0xbce48b70	-0.02789852
70	0xbbb4e0e0	-0.0055199713
71	0x3dcece71	0.10097969
72	0x3de9c142	0.11413814
73	0xbcbcd864	-0.023052402
74	0xbc19bc20	-0.009383231
75	0xbe153d4a	-0.14574161
76	0x3b302a80	0.00268808
77	0xbd9d4fc9	-0.076812334
78	0xbd5c8166	-0.05383434
79	0xbe204df1	-0.15654732
80	0xbe191e93	-0.1495307
81	0x3e2a10b7	0.16607939
82	0x3d7e5d12	0.062100478
83	0x3d021a80	0.031763554
84	0x3e1d5e6d	0.15368052
85	0x3dfae8a6	0.122514054
86	0x3e11ac6f	0.14225934
87	0xbca73da0	-0.020415127
88	0xbd7655fe	-0.060140602
89	0xbd874f48	-0.066069186
90	0x3d0585e4	0.03259839
91	0x3dc6881a	0.09693928
92	0x3d99b7f6	0.07505791
93	0xbe00659a	-0.12538758
94	0xbcccecaa	-0.025015194
95	0x3d8db480	0.06919193
96	0x3d989691	0.07450593
97	0x3e0bf087	0.13665973
98	0xbe36805b	-0.17822401
99	0x3d43044c	0.04761152
100	0xbda11287	-0.07864862
101	0xbdd95c05	-0.106132545
102	0x3db9a2ab	0.090642296
103	0x3b0b0b0a	0.0021216297
104	0x3dced6ea	0.10099585
105	0x3df80f7a	0.12112327
106	0xbe13a788	-0.14419377
107	0xbdd1998c	-0.10234365
108	0x3d3d9a8c	0.046289966
109	0x3e024508	0.12721646
110	0x3ae7791c	0.0017659995
111	0xbdb8534a	-0.09000261
112	0x3da6cf1a	0.0814497
113	0xbdce089e	-0.10060237
114	0x3c943908	0.0180936
115	0xbe29bf80	-0.16576958
116	0xbe00ee54	-0.12590915
117	0xbe0b3914	-0.13595992
118	0x3e252b51	0.16129805
119	0xbd9d9301	-0.076940544
120	0x3c9f5a9a	0.019452382
121	0xbe2ec585	-0.17067535
122	0xbe3963bd	-0.18104453
123	0xbc2c8830	-0.0105305165
124	0xbde7a3d4	-0.113105446
125	0xbe2d0079	-0.16894712
126	0x3aabf2e4	0.0013118652
127	0xbcc79fc0	-0.024368167
128	0xbe0fe198	-0.14050901
129	0xbe30c544	-0.17262751
130	0xbd8524d3	-0.06501164
131	0x3c04f1cc	0.0081142895
132	0xbcaf3395	-0.0213869
133	0xbcb9a74a	-0.022662777
134	0xbdf42392	-0.11920847
135	0xbe3d965a	-0.18514386
136	0x3e1e5fee	0.15466282
137	0x3e1da035	0.15393145
138	0x3dc6348a	0.0967799
139	0xbdb14bdd	-0.08657048
140	0xbe028aaf	-0.12748216
141	0xbdb8127e	-0.08987902
142	0x3e1a61c1	0.15076353
143	0xbe0ed849	-0.13949694
144	0xbd8cc847	-0.06874137
145	0x3b4c27c0	0.0031151623
146	0x3dc7db42	0.09758617
147	0xbd60dfa4	-0.05490078
148	0xbd8f9dc2	-0.07012512
149	0x3d837c0c	0.064201444
150	0x3e053ffd	0.13012691
151	0xbd5c602f	-0.053802665
152	0xbe125386	-0.14289674
153	0x3e09d6ed	0.13460894
154	0x3d562040	0.05227685
155	0xbda2da5c	-0.07951805
156	0x3cefcfa0	0.029273808
157	0xbe0641a7	-0.13110982
158	0xbdfb2730	-0.12263334
159	0xbdb02e1f	-0.08602547
160	0x3d661540	0.05617261
161	0x3e210067	0.1572281
162	0xbdedfe12	-0.11620726
163	0xbd656740	-0.05600667
164	0x3dc28ef2	0.09499921
165	0xbd582a0b	-0.05277447
166	0xbe0e1091	-0.13873507
167	0x3da2a486	0.079415366
168	0xbd145de4	-0.036222354
169	0x3e038921	0.1284528
170	0xbbd18768	-0.0063943155
171	0xbd547815	-0.05187233
172	0xbd2b798c	-0.041863963
173	0x3e078965	0.13236006
174	0x3d782a6e	0.06058734
175	0xbd892c67	-0.06697922
176	0x3dedbed2	0.11608662
177	0xbdaea67d	-0.08527849
178	0x3dcf82f6	0.10132401
179	0x3d138118	0.036011785
180	0x3da1b4b5	0.07895795
181	0xbe0f7750	-0.14010358
182	0x3ddfcc01	0.109275825
183	0xbe049c46	-0.12950239
184	0x3b9d0d91	0.004792877
185	0xbe236604	-0.15956885
186	0xbe2e6923	-0.17032294
187	0xbb763b00	-0.0037571788
188	0xbd4d3975	-0.050103623
189	0x3db5ba5e	0.08873437
190	0x3d3c45c4	0.04596497
191	0xbdc03083	-0.09384253
192	0x3b74c11c	0.0037346547
193	0x3e23dfbd	0.16003318
194	0x3d87fe08	0.066402495
195	0xbd8726c3	-0.0659919
196	0x3dd97022	0.10617091
197	0x3e2603f1	0.16212441
198	0xbd3d92b0	-0.04628247
199	0xbcb338d4	-0.021877684
200	0xbd179b10	-0.037013113
201	0x3db839b7	0.08995383
202	0xbd66f374	-0.05638452
203	0xbd1835cc	-0.03716068
204	0x3e03d027	0.12872373
205	0x3d3ef526	0.04662051
206	0xbe374474	-0.17897207
207	0xbda1bd74	-0.078974634
208	0xbcd05368	-0.025430396
209	0xbe14be32	-0.14525679
210	0xbde339eb	-0.11095031
211	0x3e270a03	0.16312413
212	0xbd96d61c	-0.07365057
213	0xbcf710d8	-0.030159399
214	0x3e07fa5f	0.13279103
215	0xbdb0ee58	-0.086392105
216	0xbd9d78dd	-0.076890685
217	0xbe225535	-0.15852816
218	0x3de76a8e	0.112996206
219	0xbe313891	-0.17306735
220	0xbe09d006	-0.13458261
221	0x3e0e2216	0.1388019
222	0x3da5830a	0.08081634
223	0x3de8301a	0.113373
224	0xbe2efa09	-0.17087568
225	0xbcad6893	-0.021168029
226	0xbd4a4a77	-0.04938742
227	0xbd098bec	-0.033580706
228	0x3e17cad5	0.14823468
229	0xbe335474	-0.17512685
230	0x3e0b7050	0.13617063
231	0x3d7b98a4	0.061424866
232	0xbe03a4fd	-0.12855907
233	0xbe216207	-0.1576005
234	0x3d4e7178	0.05040118
235	0xbe255b8f	-0.16148208
236	0xbe1e9be8	-0.15489161
237	0x3d86666a	0.06562503
238	0xbb81b547	-0.0039583775
239	0x3dbc0060	0.09179759
240	0xbd0b74c4	-0.034046903
241	0xbdf94313	-0.121709965
242	0xbc9034e8	-0.017603353
243	0x3d877616	0.0661432
244	0xbc0ff5af	-0.008786603
245	0x3e0aff59	0.1357397
246	0xbdfdec80	-0.123986244
247	0x3df165e0	0.11787009
248	0xbdc529be	-0.09627102
249	0x3e1ef613	0.15523557
250	0xbe3228f7	-0.1739844
251	0x3e28f22d	0.16498633
252	0xbcfb9430	-0.03071031
253	0x3dfd484b	0.123673044
254	0x3d4d5957	0.05013403
255	0x3de0ba72	0.109730616

sequential/dense_3/MatMul f4 [2, 64]
0	0xbce234d2	-0.027613077
1	0x3e383296	0.17988047
2	0x3e8d21f2	0.2756496
3	0x3d482578	0.048863858
4	0x3d0c6450	0.034275353
5	0x3e5ac340	0.21363544
6	0xbe2579a6	-0.16159686
7	0x3ee3b504	0.4447404
8	0xbe7475fd	-0.23873134
9	0xbe4c32a4	-0.19941193
10	0x3df6985d	0.1204078
11	0xbe2ea9d5	-0.17056973
12	0xbe90303c	-0.281618
13	0x3e9a907c	0.30188358
14	0x3e86c99b	0.26325688
15	0x3e40cb72	0.18827608
16	0xbe2948a4	-0.16531616
17	0x3e4d4836	0.20047078
18	0x3c25ea9e	0.010126738
19	0x3e4dfd34	0.2011612
20	0x3e33c382	0.17555049
21	0x3dd635be	0.10459469
22	0x3ded279b	0.1157982
23	0x3e5894bd	0.21150489
24	0x3e3cb7ba	0.18429461
25	0xbd9110d9	-0.070832916
26	0xbdb8f281	-0.09030629
27	0x3dcd734c	0.10031757
28	0x3e8af0a8	0.2713673
29	0x3d960661	0.073254354
30	0x3b91e580	0.0044524074
31	0x3d0be2bb	0.034151774
32	0xbe5e3429	-0.21699585
33	0x3df03d15	0.117304005
34	0xbd95c6a5	-0.07313279
35	0x3d25a638	0.04044172
36	0x3e34c813	0.17654447
37	0x3ddf6ef8	0.109098375
38	0xbe61c8f8	-0.2204932
39	0xbe26857f	-0.16261862
40	0x3e84b21d	0.2591714
41	0xbd6abc00	-0.057308197
42	0x3d12de0d	0.035856295
43	0x3cd5dcda	0.026106287
44	0x3e0e1c66	0.1387802
45	0x3e1507b8	0.14553726
46	0xbe277e7b	-0.16356842
47	0x3e3b0649	0.18264116
48	0x3e47b868	0.19503939
49	0xbe8ea1fd	-0.27857962
50	0x3e7697ac	0.24081296
51	0x3e537464	0.20649868
52	0xbe9a9ae2	-0.3019629
53	0x3e287977	0.16452585
54	0xbdebac10	-0.11507428
55	0xbde2f698	-0.1108219
56	0x3e0679c4	0.13132387
57	0xbdf102c8	-0.117681086
58	0xbde5d6be	-0.112225994
59	0xbe035d3c	-0.12828535
60	0xbdd6694f	-0.10469305
61	0xbe298c8b	-0.16557519
62	0x3c7f9d40	0.015601456
63	0xbe364409	-0.17799391
64	0x3d9c6190	0.07635796
65	0x3e3398d8	0.17538774
66	0xbda2cee9	-0.07949621
67	0xbe4c3da6	-0.19945392
68	0x3e6961b4	0.22791177
69	0xbcbc76a0	-0.023005784
70	0xbdfb3108	-0.12265211
71	0xbede75bc	-0.434492
72	0x3e548274	0.20752889
73	0x3e4c2678	0.1993655
74	0x3e18b062	0.14911035
75	0xbe30d8b8	-0.17270172
76	0x3e4d7c0c	0.20066851
77	0xbcf33a18	-0.029690787
78	0xbd544e6f	-0.051832613
79	0x3e229cd2	0.15880135
80	0x3e82a69e	0.25517744
81	0x3c3ba764	0.011453483
82	0x3e75617a	0.23962966
83	0xbe4f44a0	-0.20241022
84	0x3e424006	0.18969736
85	0x3e8a6113	0.27027187
86	0x3d84ac99	0.06478233
87	0x3e8bd305	0.27309433
88	0xbd344e62	-0.044020064
89	0x3e769240	0.24079227
90	0xbe3e06e9	-0.18557324
91	0x3dfe8a7c	0.124287575
92	0x3e41b6c2	0.18917373
93	0xbe18ac6e	-0.14909527
94	0xbc815b50	-0.015790612
95	0x3dd16edd	0.102262236
96	0x3e4416a7	0.19149266
97	0xbddd67e2	-0.1081083
98	0x3d6e573f	0.058188673
99	0x3e0228f2	0.12710932
100	0x3e370f5b	0.17876951
101	0x3e28a411	0.16468836
102	0xbe4c1730	-0.1993072
103	0x3e304f1d	0.1721768
104	0x3e3ea207	0.18616496
105	0x3e623e4f	0.22094081
106	0x3e28a927	0.16470776
107	0xbdaffab3	-0.08592739
108	0xbe8f805d	-0.2802762
109	0x3d35bf44	0.04437186
110	0x3e27b097	0.16375957
111	0xbe375ba9	-0.1790606
112	0xbe5f7859	-0.21823253
113	0xbcb62a58	-0.022236988
114	0xbd88d0ba	-0.066804364
115	0xbd33e8a0	-0.04392302
116	0x3d8a1247	0.067417674
117	0x3e78bc1e	0.24290511
118	0xbe0a369d	-0.13497396
119	0xbe6d0923	-0.23148017
120	0xbe0029d0	-0.1251595
121	0xbe2e5ad0	-0.1702683
122	0x3ed8dd48	0.42356324
123	0x3e5505ad	0.20802946
124	0xbe847b8f	-0.25875518
125	0x3eb59192	0.35462624
126	0xbe758500	-0.23976517
127	0x3d0f8ac9	0.035044465
